pretrained/afifi.pth (torch, 244621 bytes, 186 tensors)

model.first_conv.conv.0.weight f4 [6, 3, 1, 1]
0	0x3f2b0e58	0.6681876
1	0x3f2a7661	0.6658688
2	0x3e713998	0.23557127
3	0x3f1e4b6b	0.6183383
4	0xbdf1d794	-0.118086964
5	0x3e6ef0f7	0.23334108
6	0x3d97b83b	0.07408186
7	0x3f0cb4ec	0.54963565
8	0x3f34d9c3	0.7064478
9	0xbe8fa5ef	-0.28056285
10	0x3f38ea0f	0.72232145
11	0x3e6df06e	0.23236248
12	0x3f239652	0.63901246
13	0x3e271154	0.16315204
14	0x3ee4f105	0.44715133
15	0x3d302a27	0.04300895
16	0x3ef70f6e	0.4825396
17	0x3e8459b0	0.25849676

model.first_conv.conv.0.bias f4 [6]
0	0xbe659f49	-0.22424044
1	0x3db47489	0.0881129
2	0x3d63b1cf	0.055589493
3	0x3e0f6ab3	0.14005546
4	0x3d810780	0.06300259
5	0x3eb2cd08	0.3492205

model.first_conv.conv.2.weight f4 [6, 1, 3, 3]
0	0xbf0db32a	-0.5535151
1	0xbee72c37	-0.4515092
2	0xbec6a7c2	-0.38799864
3	0xbf033c6c	-0.5126407
4	0xbe5c3c8d	-0.21507473
5	0xbf161b88	-0.5863576
6	0x3c9d097b	0.01916956
7	0xbf10ec13	-0.5661022
8	0xbcc15113	-0.02359823
9	0xbdff2265	-0.12457732
10	0xbe91861e	-0.28422636
11	0x3cca111e	0.024666365
12	0xbdebe67a	-0.11518569
13	0x3de0feaf	0.10986077
14	0xbe037fde	-0.12841746
15	0xbe94aa12	-0.29036003
16	0xbdc9d81a	-0.09855671
17	0xbe922920	-0.28547
18	0x3e3752f7	0.17902742
19	0x3eae8c39	0.34091356
20	0x3e7223b0	0.23646426
21	0x3dcebc56	0.10094516
22	0x3ee2cbc7	0.44296095
23	0x3e8e111f	0.27747437
24	0x3ee7ed5b	0.45298275
25	0x3df9414e	0.12170659
26	0x3c606c36	0.0136976745
27	0xbee4cf0c	-0.44689214
28	0xbf0725f4	-0.52792287
29	0xbd20eed2	-0.039290257
30	0x3c0dbe95	0.008651395
31	0x3e035ac5	0.12827595
32	0xbab02c36	-0.001344091
33	0xbe861e49	-0.2619498
34	0x3e39a04f	0.18127559
35	0xbeb4ea04	-0.3533479
36	0x3e945e42	0.28978163
37	0x3d2dc881	0.042427544
38	0x3ebda1e8	0.37037587
39	0x3e038417	0.12843357
40	0x3eac5c08	0.33663964
41	0x3e3ab527	0.18233167
42	0x3f055f2b	0.5209834
43	0x3d86a7fd	0.0657501
44	0x3dafdd9d	0.08587191
45	0xbe7c8e2e	-0.24663612
46	0x3e86fe17	0.2636573
47	0x3d8b93f3	0.068153284
48	0x3e9e75bd	0.30949202
49	0xbe8e0657	-0.27739212
50	0xbeaf0441	-0.34182933
51	0xbe99a60e	-0.30009502
52	0xbe81bb41	-0.25338176
53	0x3dc0dd8d	0.094172575

model.first_conv.conv.2.bias f4 [6]
0	0x3e8d0c58	0.2754848
1	0x3ea9d43a	0.3316973
2	0x3ddec45e	0.10877298
3	0xbf308cb8	-0.6896472
4	0x3f001d67	0.50044864
5	0xbe047c78	-0.12938106

model.first_conv.conv.3.fc.0.weight f4 [6, 6, 1, 1]
0	0xbd5e0de8	-0.05421248
1	0xbe5e17e8	-0.21688807
2	0x3eded46b	0.43521437
3	0xbe87934e	-0.26479572
4	0xbd563d8e	-0.052304797
5	0x3d512758	0.05106291
6	0x3dfa7495	0.122292675
7	0xbe0442d3	-0.12916116
8	0x3e43c01a	0.1911625
9	0x3e9244c2	0.28568083
10	0xbea4a803	-0.32159433
11	0xbe337e6a	-0.17528692
12	0x3ead1491	0.33804753
13	0xbe36dbff	-0.1785736
14	0xbe29e438	-0.16590965
15	0xbeb1b2c2	-0.34706694
16	0xbe8da171	-0.27662233
17	0x3e1c6f5c	0.15276855
18	0xbd5cb78e	-0.05388599
19	0xbe97ba1a	-0.29634172
20	0x3c1ce54e	0.009576155
21	0xbe8ec7a3	-0.27886686
22	0xbeb155a4	-0.3463565
23	0xbe6633d4	-0.22480708
24	0xbf34f146	-0.70680654
25	0xbeb1f0b9	-0.3475397
26	0x3f3129c6	0.69204366
27	0x3e5158ea	0.20444074
28	0x3e8ea82e	0.27862686
29	0xbee073df	-0.43838403
30	0xbe337a2b	-0.17527072
31	0xbe26e833	-0.16299514
32	0xbce77641	-0.02825463
33	0xbe8c110b	-0.27356753
34	0xbe8d8bc7	-0.27645704
35	0xbe11889f	-0.14212273

model.first_conv.conv.3.fc.0.bias f4 [6]
0	0x3d19a556	0.037511192
1	0xbe50cfb9	-0.2039174
2	0xbdb252d3	-0.08707204
3	0xbe8da3ea	-0.2766412
4	0xbe818cf1	-0.25302842
5	0xbec2d472	-0.38052708

model.first_conv.conv.3.fc.2.weight f4 [6, 6, 1, 1]
0	0x3e77e8d0	0.24209905
1	0xbea4fd09	-0.322243
2	0x3eb657f1	0.3561397
3	0xbda5ef2e	-0.081022605
4	0x3f568906	0.8380283
5	0x3e69e4ba	0.22841159
6	0xbed8b013	-0.42321834
7	0x3e90b4ed	0.28263035
8	0xbde6111a	-0.112337306
9	0xbe203f7f	-0.15649222
10	0xbecb87e4	-0.39752114
11	0xbe926f9b	-0.28600773
12	0x3d2f720d	0.042833377
13	0xbd6b3283	-0.05742122
14	0x3e0165db	0.12636511
15	0xbeab89a3	-0.33503446
16	0x3f062311	0.5239726
17	0xbec0b046	-0.37634486
18	0xbdf1fc53	-0.11815705
19	0x3dac44de	0.08411573
20	0x3e40e9c4	0.18839175
21	0x3ea8bf1d	0.32958308
22	0x3f68e44a	0.9097334
23	0xbeb9b0bc	-0.3626765
24	0x3e905f86	0.2819788
25	0xbe33e091	-0.17566134
26	0xbd98d642	-0.074627414
27	0xbe9c73a6	-0.30556983
28	0x3f2a72f5	0.6658166
29	0xbed1449d	-0.4087266
30	0x3e5c4bb0	0.21513247
31	0x3e12b05e	0.14325091
32	0x3e07bd4b	0.13255803
33	0xbe6203df	-0.22071789
34	0x3e9be68e	0.30449337
35	0x3dc01e1a	0.093807414

model.first_conv.conv.3.fc.2.bias f4 [6]
0	0x3e015aad	0.12632246
1	0xbec0a48f	-0.37625548
2	0x3da364d4	0.07978216
3	0xbe9b4fb9	-0.3033426
4	0xbdb988ab	-0.090592705
5	0x3e8ca982	0.27473074

model.first_conv.conv.5.weight f4 [3, 6, 1, 1]
0	0xbf10c735	-0.56553966
1	0xbd91c314	-0.07117286
2	0xbe8b72d5	-0.27236047
3	0x3f765e41	0.9623757
4	0xbda12050	-0.07867491
5	0xbd9004ce	-0.070321664
6	0x3e9e67f4	0.30938685
7	0xbe30495a	-0.17215481
8	0xbe79f094	-0.2440818
9	0xbef00fbb	-0.46887
10	0x3f07de77	0.5307383
11	0xbea4d85f	-0.32196328
12	0x3f281e5f	0.6567134
13	0x3e98c2f5	0.2983624
14	0x3eae4323	0.34035596
15	0xbf7e1973	-0.9925758
16	0x3f0946fa	0.53623927
17	0x3dd90c5c	0.105980605

model.first_conv.conv.5.bias f4 [3]
0	0x3e90a534	0.2825104
1	0xbd9f5397	-0.07779615
2	0xbdb83be6	-0.089958

model.conv1.conv.0.weight f4 [24, 3, 1, 1]
0	0x3d3cfeab	0.046141308
1	0xbdba36fa	-0.09092517
2	0xbe1ec30c	-0.15504092
3	0x3ebb73e3	0.36611852
4	0x3ef972cf	0.48720405
5	0xbd92b8d6	-0.07164161
6	0xbe7ce641	-0.2469721
7	0xbcce228f	-0.025162963
8	0xbcdb07b0	-0.026737064
9	0x3e142384	0.14466673
10	0xbe9b1b8c	-0.30294454
11	0xbf46b946	-0.77626455
12	0xbeee02ec	-0.46486604
13	0x3f0cb7ac	0.5496776
14	0x3e8ff066	0.28113097
15	0x3e0da5f9	0.13832845
16	0xbed20c79	-0.4102514
17	0xbed48651	-0.41508725
18	0xbf3ed1da	-0.7453896
19	0xbe1cbf25	-0.15307291
20	0x3e855791	0.2604337
21	0x3efa6f40	0.48913002
22	0xbe3c474e	-0.18386576
23	0xbf237c8e	-0.6386193
24	0xbed77dc0	-0.42088127
25	0x3dab3f26	0.08361654
26	0x3f4ed22e	0.8078946
27	0xbe00d90c	-0.12582797
28	0xbdcdfbc6	-0.100577876
29	0x3e7218cd	0.23642273
30	0xbe471a08	-0.19443524
31	0xbee3dc71	-0.4450412
32	0x3eb3c004	0.35107434
33	0xbe47b0de	-0.19501063
34	0xbee7fdf9	-0.45310953
35	0xbf883ced	-1.0643593
36	0x3e9abd01	0.30222324
37	0x3f169dd6	0.5883459
38	0x3eb5890b	0.35456118
39	0xbf48e996	-0.78481424
40	0xbf042d1b	-0.51631325
41	0xbeb7aa67	-0.35872194
42	0x3f02b9e1	0.5106488
43	0x3ea2b5c8	0.31779313
44	0x3f0c1a67	0.54727787
45	0x3ede6a34	0.43440402
46	0x3e2b1385	0.16706665
47	0x3db53aef	0.08849131
48	0xbeea3d95	-0.45750108
49	0xbef88b41	-0.48543742
50	0xbf065c8a	-0.52484953
51	0x3f122343	0.57085055
52	0xbd92361e	-0.07139228
53	0xbd133047	-0.035934713
54	0xbea752d1	-0.3268037
55	0xbde4eb2b	-0.11177667
56	0xbed3a7ee	-0.41339058
57	0xbebbf955	-0.36713663
58	0x3e3181d3	0.1733468
59	0xbe4c8e84	-0.1997624
60	0x3ebc7722	0.3680964
61	0xbe54dcae	-0.20787308
62	0xbefaa786	-0.48955935
63	0x3dbc0baf	0.09181916
64	0xbec74ea0	-0.38927174
65	0xbeb54c87	-0.35409948
66	0xbf1f9176	-0.6233133
67	0x3ebe545a	0.3717373
68	0xbed1320a	-0.4085849
69	0x3e609f95	0.21935876
70	0x3ea9b26c	0.33143938
71	0x3f0541e4	0.52053666

model.conv1.conv.0.bias f4 [24]
0	0xbedf310a	-0.435921
1	0x3ece8abf	0.4034023
2	0xbe7d22a5	-0.24720247
3	0x3cd17dc8	0.025572672
4	0x3f072811	0.5279551
5	0x3bd85f4e	0.006603158
6	0xbe42ddff	-0.19029997
7	0xbde4a4d1	-0.11164249
8	0xbd9bf264	-0.07614592
9	0x3e95968a	0.29216415
10	0xbf3bbac8	-0.7333188
11	0xbb53ea68	-0.0032335762
12	0x3eccedb2	0.40025097
13	0x3ed2e86f	0.41192958
14	0xbe112a34	-0.14176255
15	0xbee2c305	-0.44289413
16	0x3dbff608	0.093730986
17	0x3eda70ba	0.4266413
18	0xbf13e6d2	-0.5777408
19	0xbe080871	-0.1328447
20	0xbf029eab	-0.5102336
21	0x3c5cc9b2	0.013475822
22	0xbeaffce8	-0.3437264
23	0xbe12db3a	-0.14341441

model.conv1.conv.2.weight f4 [24, 1, 3, 3]
0	0xbdbb969a	-0.09159584
1	0xbe9c3888	-0.3051188
2	0x3e91c145	0.28467765
3	0x3e959f6e	0.29223198
4	0xbd2d0280	-0.042238712
5	0xbced4a23	-0.028966015
6	0xbdf81d2d	-0.1211494
7	0xbe9443b3	-0.289579
8	0xbea108ee	-0.31452125
9	0x3e152ab6	0.14567074
10	0xbe31be11	-0.17357661
11	0xbe5343c9	-0.20631327
12	0xbca0b183	-0.019615894
13	0xbde53611	-0.11191953
14	0xbdea7cce	-0.11449586
15	0x3cfb90d6	0.030708712
16	0xbd835728	-0.06413108
17	0xbde74e6c	-0.11294255
18	0xbe06efcd	-0.13177414
19	0xbe7922f7	-0.24329744
20	0x3e9df49e	0.3085069
21	0xbde557e8	-0.111984074
22	0x3dea701b	0.11447164
23	0xbdbb2ac0	-0.09139013
24	0x3d61c8f1	0.055123273
25	0x3eaf9b20	0.34298038
26	0x3e3d23d8	0.18470705
27	0xbdb1e9de	-0.08687185
28	0x3e8c3dc1	0.27390864
29	0x3ee77dd3	0.45213184
30	0x3e6d0f24	0.23150307
31	0x3e9e01b9	0.3086069
32	0x3ecfb5b4	0.40568316
33	0x3df00342	0.117193714
34	0x3e34e465	0.1766525
35	0xbe08f085	-0.13373001
36	0xbdbc9ba2	-0.09209372
37	0x3e5dd849	0.21664537
38	0x3e0b64aa	0.13612619
39	0xbe89428f	-0.26808593
40	0xbea2aa95	-0.3177077
41	0xbe90c168	-0.28272557
42	0xbecdc419	-0.40188673
43	0xbea6447b	-0.3247412
44	0xbe20e6a8	-0.15712988
45	0x3e01e90c	0.12686557
46	0xbcd8cf9a	-0.02646618
47	0xbeaa5433	-0.33267364
48	0xbeb1ee7e	-0.34752268
49	0x3dcf39fa	0.1011848
50	0xbe9ddbe6	-0.30831832
51	0xbdf5c82a	-0.12001069
52	0x3dc9470c	0.09828004
53	0xbe575876	-0.21029839
54	0xbe679007	-0.22613536
55	0xbe43e2cd	-0.19129486
56	0xbe714d3a	-0.23564616
57	0xbeac1454	-0.3360926
58	0xbedddd95	-0.43333116
59	0xbecc318d	-0.39881554
60	0xbeb76a72	-0.358234
61	0x3e33ed84	0.17571074
62	0xbe99ecd8	-0.3006351
63	0xbc8fb978	-0.017544493
64	0x3e7655fb	0.24056236
65	0x3e84764b	0.258715
66	0x3eb94c3e	0.3619098
67	0x3ec3fa89	0.3827708
68	0x3ea49c0c	0.32150304
69	0xbddcaaeb	-0.107747875
70	0x3e4ed27c	0.20197481
71	0x3ec3e92d	0.38263837
72	0xbe0761cb	-0.13220899
73	0xbe51168b	-0.20418756
74	0x3ec2219b	0.37916264
75	0xbd807d7b	-0.062739335
76	0xbde6e5cf	-0.11274301
77	0xbe110628	-0.14162505
78	0x3dc15f06	0.094419524
79	0x3e7046ad	0.2346446
80	0x3e829358	0.2550304
81	0x3d3e851b	0.046513658
82	0xbe81ab02	-0.2532578
83	0xbe9a6948	-0.30158448
84	0xbcda9ed2	-0.02668706
85	0x3e965f24	0.29369462
86	0x3e48c166	0.19605026
87	0xbe70941d	-0.23494
88	0xbd7a26b7	-0.061072078
89	0xbe7d2a0e	-0.24723074
90	0xbe146d90	-0.1449492
91	0x3d8e91b5	0.06961385
92	0x3e365ba6	0.17808399
93	0x3e92333f	0.28554723
94	0xbe9ae618	-0.30253673
95	0x3e5c5f07	0.21520625
96	0xbe739318	-0.2378658
97	0x3df2f130	0.11862409
98	0x3e890cbf	0.26767537
99	0x3e4f0c16	0.20219454
100	0x3ee6a506	0.45047778
101	0xbdf8129d	-0.12112925
102	0x3d131bf3	0.035915326
103	0x3e9b54ba	0.3033808
104	0x3d39d976	0.045373403
105	0x3e030c1c	0.12797588
106	0xbb8748e1	-0.004128561
107	0x3eba53c8	0.36392045
108	0x3ddc13e4	0.10745981
109	0x3dfa05c7	0.12208133
110	0xbdfa76cb	-0.12229689
111	0xbe4ebad2	-0.20188454
112	0x3de9611a	0.11395474
113	0x3e7ec307	0.24879085
114	0xbdb46943	-0.088091396
115	0xbaeb4532	-0.0017949699
116	0x3ec76dd2	0.38950974
117	0xbd3397f9	-0.043846104
118	0xbda0a108	-0.07843214
119	0xbe358643	-0.17726998
120	0xbec60ee6	-0.38683242
121	0xbed92403	-0.42410287
122	0xbe8c2aa8	-0.27376294
123	0xbe7b0264	-0.2451263
124	0xb90034c2	-0.00012226685
125	0xbe541866	-0.20712432
126	0xbd70a271	-0.058748666
127	0x3ea35af6	0.31905335
128	0x3dacec56	0.08443515
129	0x3e5d2320	0.2159543
130	0xbe5a183f	-0.21298312
131	0xbe79d946	-0.2439929
132	0x3e1d93aa	0.1538836
133	0xbe7eade0	-0.24871016
134	0xbe9eb98d	-0.3100094
135	0x3e9c3643	0.30510148
136	0x3e5a9fb0	0.21349978
137	0x3da49e1c	0.080379695
138	0x3f03564d	0.5130356
139	0x3f1ab426	0.60431135
140	0x3eca0333	0.39455566
141	0x3e756354	0.23963672
142	0x3cb12c79	0.021627652
143	0x3e5cf4c8	0.21577752
144	0x3d6118f5	0.05495544
145	0x3e0a5b9b	0.13511507
146	0xbd7ce27d	-0.061739434
147	0xbe1e74b0	-0.154742
148	0x3e2de588	0.1698209
149	0xbe8e2223	-0.2776042
150	0x3e3dbb05	0.18528374
151	0xbe162e31	-0.14666058
152	0xbbf9d39e	-0.0076241037
153	0x3db134a1	0.08652616
154	0x3e3c6985	0.18399628
155	0x3d6e148a	0.058125056
156	0x3eb96c02	0.36215216
157	0x3dd5a39a	0.10431595
158	0x3ec69e69	0.38792732
159	0x3ee3a457	0.4446132
160	0xbd3676fa	-0.04454706
161	0xbde23215	-0.11044709
162	0x3e8544c6	0.26029032
163	0x3e81e641	0.25370982
164	0xbe86baa9	-0.26314285
165	0xbcf1111c	-0.029427104
166	0xbeaaeb09	-0.33382443
167	0xbe8edf4c	-0.27904737
168	0x3d7b539b	0.06135903
169	0x3dac1ab1	0.084035285
170	0x3d853149	0.06503541
171	0xbdb38450	-0.08765471
172	0x3e9f9edd	0.3117589
173	0x3d557c1e	0.05212032
174	0xbe4593bb	-0.19294636
175	0xbc63274d	-0.0138643505
176	0x3daf8c11	0.085716374
177	0x3df5ea35	0.12007562
178	0xbe6c6b82	-0.23087886
179	0x3e05ac44	0.13053995
180	0xbd9cb3bd	-0.0765147
181	0xbe355477	-0.17708002
182	0xbd8d031e	-0.0688536
183	0x3ecd9ee8	0.40160298
184	0x3ebdee09	0.3709567
185	0x3eccea9f	0.40022752
186	0x3e8cb79c	0.27483833
187	0x3eace16e	0.3376574
188	0x3d638055	0.05554231
189	0xbeb54fc3	-0.35412416
190	0x3d01fd2c	0.031735584
191	0xbe8cc790	-0.27496004
192	0xbebef81c	-0.37298667
193	0xbe65bbe1	-0.22434951
194	0xbc658ba1	-0.014010341
195	0x3cf2969b	0.02961283
196	0xbe792bc4	-0.24333102
197	0xbe8dd08c	-0.2769817
198	0x3e01deb0	0.12682605
199	0xbdcfb0ff	-0.10141181
200	0xbde88877	-0.113541536
201	0x3e814866	0.25250548
202	0x3d0349fe	0.032052986
203	0x3ed1918c	0.40931356
204	0x3ec5fe6c	0.3867067
205	0x3e2e1273	0.16999225
206	0x3e51037f	0.2041149
207	0x3e965fcf	0.2936997
208	0x3e01b3a4	0.12666184
209	0x3d4e8c1c	0.050426587
210	0x3e188057	0.14892708
211	0x3e31e954	0.17374164
212	0x3e98aaa2	0.29817683
213	0x3d8ad41c	0.06778738
214	0xbdc0690a	-0.093950346
215	0xbdd0f1fb	-0.10202404

model.conv1.conv.2.bias f4 [24]
0	0xbe0e3599	-0.13887633
1	0x3d81f69d	0.06345866
2	0x3e845739	0.25847796
3	0x3e87e51c	0.26541984
4	0x3e2d4c69	0.1692368
5	0xbe83cf3c	-0.25744045
6	0xbe0c2120	-0.13684511
7	0x3d4cc47e	0.049992077
8	0x3dd2d412	0.102943555
9	0xbbac6d80	-0.005262077
10	0xbee703e2	-0.4512015
11	0x3e1fa74a	0.1559116
12	0xbe5a1080	-0.21295357
13	0xbe5cf7a6	-0.21578845
14	0xbe2f5bac	-0.17124814
15	0x3ea74790	0.32671785
16	0xbe9c0511	-0.30472615
17	0x3e8458fa	0.25849134
18	0xbd74e01c	-0.05978404
19	0xbd1b1486	-0.03786137
20	0x3c95e0c6	0.018295657
21	0xbd3fb1b9	-0.04680035
22	0x3e38d732	0.1805084
23	0x3e03f7cf	0.128875

model.conv1.conv.5.weight f4 [16, 24, 1, 1]
0	0xbe32e811	-0.17471339
1	0x3e025d2e	0.12730858
2	0xbb16f19c	-0.0023032194
3	0xbd1434df	-0.036183234
4	0x3cfbdf28	0.030746058
5	0x3d843e8e	0.06457244
6	0xbe9a7f80	-0.301754
7	0xbe362b03	-0.17789845
8	0x3e780339	0.2421998
9	0x3db10a4d	0.08644543
10	0xbed416d1	-0.41423658
11	0xbe8928e1	-0.26789
12	0x3d612d63	0.054974925
13	0xbe3e3a7a	-0.18576995
14	0x3e08e460	0.13368368
15	0xbe499feb	-0.1968991
16	0xbc731667	-0.014836884
17	0xbddb95c6	-0.107219264
18	0x3c8ac44e	0.016939308
19	0x3e32269b	0.1739754
20	0x3cb61902	0.022228722
21	0x3dea1c02	0.11431123
22	0x3df55284	0.11978629
23	0x3e18c314	0.14918166
24	0xbdc9a4e1	-0.09845901
25	0xbc6113a6	-0.013737595
26	0x3e0c551a	0.13704339
27	0xbd392013	-0.045196604
28	0x3d8de218	0.069278896
29	0xbd933ebe	-0.071897015
30	0xbe6e0f6d	-0.23248072
31	0x3d9a3bd6	0.07530944
32	0x3e30aa38	0.17252433
33	0x3cedd1d7	0.029030723
34	0x3e68761c	0.22701305
35	0x3e1cf209	0.15326704
36	0x3e8cd46f	0.27505824
37	0xbd8f0382	-0.06983091
38	0xbe608f3e	-0.21929643
39	0xbe8cb111	-0.2747884
40	0xbe2a7315	-0.16645463
41	0xbe65298b	-0.22379129
42	0xbe018466	-0.12648162
43	0xbe55da83	-0.20884137
44	0xbe1b4f5c	-0.15166992
45	0xbe1fa1f3	-0.15589122
46	0xbe1b1f0a	-0.15148559
47	0xbe088b56	-0.13334402
48	0x3dcdd23f	0.10049867
49	0x3da6a366	0.081366345
50	0xbd87fc46	-0.06639914
51	0xbce3a467	-0.027788354
52	0x3e1c2f42	0.15252402
53	0xbda1a71c	-0.07893202
54	0x3d03f189	0.032212768
55	0x3e601035	0.21881182
56	0xbe505612	-0.20345333
57	0x3db6c7c1	0.08924819
58	0x3efdad1f	0.49546143
59	0x3daf2601	0.085521705
60	0x3ccd0ef0	0.025031537
61	0xbd726cc3	-0.059185755
62	0x3c1f8864	0.009737108
63	0x3d6f1716	0.058371626
64	0x3daa0022	0.083008066
65	0x3de70d6c	0.11281857
66	0x3e4dbbad	0.20091124
67	0xbe0487f2	-0.12942484
68	0xbca3c812	-0.019992862
69	0xbe2ebd7d	-0.17064472
70	0xbe2e61f7	-0.17029558
71	0xbdc5e6bc	-0.0966315
72	0xbe371f90	-0.17883134
73	0x3ddb7b77	0.107169084
74	0x3d9cdfa0	0.076598406
75	0xbd53d747	-0.051718976
76	0x3d536c82	0.051617153
77	0xbe4850f7	-0.19562136
78	0xbdab22d7	-0.083562545
79	0xbdde6602	-0.108593
80	0xbe82c267	-0.25538942
81	0xbddd3fcf	-0.10803186
82	0xbe544410	-0.20729089
83	0x3e32c0cd	0.1745636
84	0x3e1e09cd	0.15433426
85	0x3e563abf	0.20920847
86	0xbdb9ae1d	-0.090664126
87	0xbd65562b	-0.05599038
88	0x3e35d7e9	0.17758144
89	0x3de13ab7	0.10997527
90	0x3c9739d3	0.01846019
91	0x3d2c91cc	0.04213123
92	0xbe2c1096	-0.16803202
93	0xbb876cb1	-0.00413283
94	0x3e7c7385	0.24653442
95	0xbd0972ac	-0.033556625
96	0xbce683da	-0.028139044
97	0xbe5ea57b	-0.21742813
98	0xbd5cb1eb	-0.053880613
99	0x3e00072e	0.12502739
100	0xbe026a8e	-0.1273596
101	0xbd4e28a7	-0.050331738
102	0x3e3c433b	0.18385021
103	0x3b12cf43	0.002240137
104	0x3dee07d1	0.116225846
105	0xbdc56357	-0.09638088
106	0x3eb7996b	0.35859236
107	0x3e41e002	0.18933108
108	0x3e0f9dfc	0.1402511
109	0xbd2d749c	-0.042347535
110	0xbdbcb804	-0.09214786
111	0xbdf38788	-0.11891085
112	0xbdf7914d	-0.12088261
113	0xbda7f18e	-0.0820037
114	0xbd11fb62	-0.035640128
115	0x3d46440a	0.04840473
116	0xbe2c3e3d	-0.16820617
117	0x3e29072f	0.16506647
118	0x3e3fb3bd	0.18720908
119	0xbe68f171	-0.22748353
120	0xbd8678cf	-0.06566011
121	0x3dcac9cc	0.09901771
122	0xbd53f3d1	-0.051746193
123	0xbd4e8331	-0.050418083
124	0xbe20c54e	-0.15700266
125	0x3e4cdbde	0.20005748
126	0xbe688f2b	-0.22710864
127	0x3e7b759d	0.24556585
128	0xbe0932ca	-0.1339828
129	0x3d16bd0f	0.036801394
130	0xbd24b709	-0.04021362
131	0xbe00f921	-0.12595035
132	0xbe40fd52	-0.18846634
133	0x3d0b7f74	0.034057096
134	0x3ea1979c	0.3156098
135	0xbe3d79fc	-0.18503565
136	0x3d95edd0	0.0732075
137	0xbe7a4657	-0.24440895
138	0x3df14344	0.11780408
139	0x3dbbaf93	0.091643475
140	0x3d5a3f8d	0.053283263
141	0x3e7f7be3	0.24949603
142	0xbbf35ad8	-0.007426601
143	0x3e26614f	0.16248058
144	0xbe424bc4	-0.18974215
145	0xbc817917	-0.01580481
146	0x3db95054	0.090485245
147	0x3e17aaf5	0.14811309
148	0x3cae6b36	0.021291357
149	0xbe309d50	-0.1724751
150	0xbd5e2cc7	-0.05424192
151	0xbe93d1fa	-0.28871137
152	0x3db7947f	0.0896387
153	0xbe8bfc93	-0.27341136
154	0xbed70007	-0.41992208
155	0x3db222d5	0.0869805
156	0x3dc5fbe0	0.09667182
157	0xbe4ae46d	-0.198137
158	0xbc1332f8	-0.00898432
159	0xbe16251c	-0.14662594
160	0x3e1a7aff	0.15085982
161	0xbe85eaa0	-0.26155567
162	0xbdc35b9f	-0.0953896
163	0xbe6ad1a7	-0.22931539
164	0xbd3371e9	-0.043809805
165	0xbb4fb85e	-0.0031695585
166	0x3e4d6474	0.20057851
167	0x3db4b213	0.088230275
168	0x3e226fab	0.1586291
169	0x3de394b1	0.11112345
170	0x3e228cfd	0.15874095
171	0x3e9311e9	0.28724602
172	0x3e6f0f0c	0.23345584
173	0xbe3a4130	-0.1818893
174	0x3e5a64da	0.21327534
175	0x3e9e075b	0.30864987
176	0xbecf9fdb	-0.40551648
177	0xbdc41378	-0.09574026
178	0x3e4221da	0.18958226
179	0x3e807802	0.2509156
180	0xbe8cab7d	-0.27474585
181	0xbdae6f06	-0.0851727
182	0x3d62cc57	0.055370655
183	0xbe1023bf	-0.14076136
184	0x3af9d22f	0.0019059832
185	0xbd6795b6	-0.05653926
186	0x3d88bbf1	0.06676472
187	0x3dc415e6	0.09574489
188	0xbe13aca3	-0.14421324
189	0x3e1ad4f4	0.15120298
190	0x3e634ba7	0.22196828
191	0x3d929819	0.071579166
192	0xbe2cb46f	-0.16865705
193	0x3c24b843	0.010053697
194	0xbe0104c6	-0.12599477
195	0xbde6452e	-0.11243664
196	0x3e3b1946	0.1827136
197	0x3dc2f112	0.09518637
198	0x3ceeda3a	0.029156793
199	0x3dcee227	0.10101729
200	0x3d9df8f7	0.07713502
201	0x3d62c656	0.05536493
202	0xbef5f4ae	-0.48038238
203	0xbe756350	-0.23963666
204	0xbdb4d4b0	-0.088296294
205	0x3d918d10	0.07106984
206	0xbe45b4b2	-0.19307211
207	0xbe891dbc	-0.26780498
208	0x3e0782cf	0.13233493
209	0x3ddf8c32	0.10915412
210	0x3e2511e6	0.16120109
211	0xbe23d016	-0.15997347
212	0xbe24f5f2	-0.16109446
213	0x3e0a44dd	0.13502832
214	0x3de6252f	0.11237561
215	0x3dc12ed0	0.09432757
216	0x3ca84bf6	0.020544033
217	0x3dd9769c	0.10618326
218	0x3e2eafdf	0.17059277
219	0xbe244f3f	-0.16045855
220	0xbd8d366c	-0.06895146
221	0x3e076daa	0.13225427
222	0xbe438670	-0.19094253
223	0xbd3bc8dc	-0.04584585
224	0x3e7365c0	0.23769283
225	0x3d01d722	0.031699307
226	0x3dbc2be2	0.091880575
227	0xbd93c89c	-0.072159976
228	0x3d3c4a3c	0.045969233
229	0x3dab6014	0.08367935
230	0xbe4e3877	-0.20138727
231	0xbdbd0de7	-0.09231167
232	0x3daa1bdb	0.08306094
233	0xbe2f3fd2	-0.1711419
234	0x3e382896	0.17984232
235	0xbdf3590a	-0.11882217
236	0xbcf82e27	-0.030295445
237	0xbe13531b	-0.14387171
238	0xbe1aa4ef	-0.1510198
239	0xbe68c12f	-0.22729944
240	0x3de85532	0.11344375
241	0xbc2cca41	-0.010546268
242	0xbe1a5463	-0.15071253
243	0xbd197ae0	-0.0374707
244	0x3e72b3e2	0.23701432
245	0x3d93c67b	0.072155915
246	0x3e64e157	0.22351585
247	0x3cdde61f	0.02708727
248	0xbe1f1cf1	-0.15538384
249	0x3d12077b	0.035651665
250	0x3ecb81a8	0.39747357
251	0xbd6da9cf	-0.05802327
252	0xbd127dcc	-0.0357645
253	0x3d87ac1f	0.06624626
254	0x3b37a7dd	0.0028023638
255	0x3dd75683	0.10514548

model.conv1.conv.5.bias f4 [16]
0	0xbe292531	-0.16518094
1	0xbde20c20	-0.11037469
2	0x3e342b50	0.17594647
3	0x3e767dd4	0.24071437
4	0x3e2afb2f	0.16697381
5	0x3e4466f7	0.19179903
6	0xbdb1aaa7	-0.086751275
7	0xbb8d8530	-0.0043188557
8	0xbc05f545	-0.008176153
9	0xbd9656e2	-0.0734079
10	0x3c9c502f	0.019081203
11	0xbe613e8b	-0.21996514
12	0x3dd0ece3	0.102014326
13	0xbe382124	-0.17981392
14	0xbd617586	-0.05504372
15	0x3e3cff68	0.18456805

model.conv2.conv.0.weight f4 [24, 16, 1, 1]
0	0xbdc81c5f	-0.09771036
1	0xbdf488d0	-0.119401574
2	0x3e2728b2	0.16324118
3	0xbd926195	-0.071475185
4	0xbd15c29f	-0.03656256
5	0x3e7b55f8	0.24544513
6	0xbdeb4689	-0.11488063
7	0xbe2afc6e	-0.16697857
8	0xbe13f867	-0.14450227
9	0xbdc29e12	-0.09502806
10	0xbde00a16	-0.10939424
11	0xbe1708f0	-0.14749503
12	0x3ddd5dd8	0.10808915
13	0x3d01c583	0.031682502
14	0xbd6542c7	-0.055971887
15	0xbe3af1e3	-0.18256335
16	0xbd986df0	-0.07442844
17	0xbd8db884	-0.06919959
18	0xbda387a7	-0.07984858
19	0xbe7dc159	-0.24780788
20	0x3d96eac7	0.07368999
21	0xbe51d09e	-0.20489737
22	0xbe49f0c3	-0.1972075
23	0xbe5de357	-0.21668755
24	0x3dee3d07	0.11632734
25	0xbe06edff	-0.13176726
26	0xbdd3a5ca	-0.10334356
27	0x3e4dd569	0.20100941
28	0x3e182f81	0.14861871
29	0x3e190aa4	0.14945465
30	0xbe8679a8	-0.2626469
31	0xbe4a6d1c	-0.19768184
32	0xbe557084	-0.20843703
33	0x3e290dfe	0.16509244
34	0x3df916d0	0.12162554
35	0xbdcf3dfb	-0.10119244
36	0x3e102b4f	0.14079021
37	0xbeeb5731	-0.4596496
38	0xbe1a7fd0	-0.15087819
39	0xbdbb23c4	-0.09137681
40	0x3e079d3f	0.13243578
41	0x3cfea3d9	0.031083988
42	0xbae9557b	-0.0017801964
43	0xbd259eed	-0.040434767
44	0x3da7fcec	0.08202538
45	0x3d9790d7	0.07400673
46	0xbd4608e4	-0.048348323
47	0x3e0e0b98	0.1387161
48	0xbcb2d972	-0.021832202
49	0x3e882794	0.26592696
50	0xbdb7fd89	-0.08983905
51	0xbdbcb21c	-0.09213659
52	0x3ed2d84c	0.41180646
53	0x3e3765bd	0.17909904
54	0x3ea14700	0.3149948
55	0xbcd21225	-0.025643418
56	0xbdb64f21	-0.089018114
57	0x3e3f8eaf	0.18706773
58	0x3e26c449	0.16285814
59	0xbe6ee4bc	-0.23329443
60	0x3c564715	0.013078471
61	0xbe215c54	-0.15757877
62	0xbe7b68be	-0.24551675
63	0x3de73255	0.11288897
64	0xbd009b06	-0.031397842
65	0xbe3126cd	-0.17299958
66	0x3de998f6	0.11406128
67	0xbdf40d0f	-0.11916553
68	0xbebfb835	-0.37445226
69	0x3ea8e4d3	0.3298708
70	0xbdbae809	-0.091262884
71	0x3d1aa3de	0.037753932
72	0x3d728ab4	0.05921431
73	0xbd298911	-0.041390482
74	0xbe774c9e	-0.24150321
75	0x3dd94f50	0.10610831
76	0xbee3272a	-0.44365817
77	0xbe32f1c8	-0.17475045
78	0x3e9f3f5a	0.3110302
79	0xbe2574c6	-0.16157827
80	0xbe83c9e5	-0.2573997
81	0xbdde2050	-0.10846007
82	0xb9db9657	-0.00041882947
83	0xbd8387e6	-0.06422405
84	0xbc2c02c0	-0.0104987025
85	0xbe443256	-0.19159827
86	0xbe9dc51f	-0.30814454
87	0xbe20bdcc	-0.15697402
88	0xbeaf44d1	-0.3423219
89	0x3ce4aaef	0.027913539
90	0x3e8bcc22	0.27304178
91	0xbe7e4136	-0.24829563
92	0x3e3b4eb0	0.18291736
93	0xbd0fd64b	-0.035116475
94	0x3d0ef8b4	0.03490515
95	0xbe47990f	-0.19491981
96	0xbdfab332	-0.1224121
97	0xbe98014f	-0.29688498
98	0xbe058ddf	-0.13042401
99	0x3e2c3491	0.16816927
100	0xbe3ced1c	-0.18449825
101	0x3e551f7d	0.20812793
102	0xbe051bd5	-0.12998898
103	0x3cfb9e65	0.030715177
104	0xbebb1159	-0.36536673
105	0x3d258acd	0.040415574
106	0xbe46df4d	-0.1942112
107	0xbde06179	-0.109560914
108	0xbe378058	-0.17920053
109	0xbcc403eb	-0.02392765
110	0x3ed1e8e5	0.40997997
111	0x3e229571	0.1587732
112	0xbdca534e	-0.0987917
113	0x3ca58b57	0.020208044
114	0xbd5c869b	-0.053839307
115	0xbe44c09a	-0.19214097
116	0x3e612bbc	0.2198934
117	0xbc9ff758	-0.019527122
118	0x3da892c6	0.0823112
119	0xbe33c8b3	-0.1755703
120	0xbdfe0c5c	-0.12404701
121	0x3d3eaa35	0.04654904
122	0x3d693254	0.056932762
123	0x3d8fe3ea	0.07025893
124	0xbdc103fe	-0.094245896
125	0x3e7c6ef0	0.24651694
126	0xbd84bc5a	-0.06481238
127	0xbdfd668f	-0.12373077
128	0xbe24d5bb	-0.16097157
129	0x3e724b4b	0.23661534
130	0x3ce658c2	0.028118495
131	0xbcb51614	-0.022105254
132	0xbd115d43	-0.035489332
133	0xbdbf5c21	-0.09343744
134	0xbe65a44e	-0.22425959
135	0xbe68d875	-0.22738822
136	0x3df00320	0.11719346
137	0x3e62d625	0.22152002
138	0x3e756eaf	0.23968004
139	0xbe645011	-0.22296168
140	0x3e507e46	0.2036067
141	0xbe521c16	-0.20518526
142	0x3dba7f55	0.09106318
143	0x3e5d75d1	0.21626975
144	0x3e37d7b6	0.17953381
145	0x3e3a042d	0.18165655
146	0x3e295835	0.16537555
147	0x3aa74f9e	0.0012764817
148	0x3df784d1	0.120858796
149	0xbdbe3c63	-0.092888616
150	0x3dcc0a07	0.0996285
151	0xbd7c8f2e	-0.061659984
152	0xbb82dd43	-0.0039936616
153	0xbe53a8ff	-0.20669936
154	0xbd58246d	-0.052769113
155	0xbe0de4c6	-0.13856801
156	0xbda7f538	-0.08201069
157	0xbe2b1504	-0.16707236
158	0xbe68103c	-0.22662443
159	0x3c26681e	0.010156659
160	0x3e1e86f5	0.1548117
161	0x3e767b97	0.24070583
162	0x3e14be82	0.14525798
163	0xbe1ff6dc	-0.15621513
164	0xbe77c723	-0.24197058
165	0x3da6056d	0.08106504
166	0x3e0f30de	0.13983485
167	0xbe3a9ea9	-0.18224587
168	0x3dd05521	0.10172487
169	0x3e792d03	0.24333577
170	0x3cdd115d	0.026985819
171	0xbe1bf1a0	-0.15228891
172	0x3e4c4522	0.19948247
173	0x3dac5cd0	0.0841614
174	0x3e22cd9e	0.15898749
175	0xbe408710	-0.18801522
176	0x3e1d8208	0.15381634
177	0xbe0b08a5	-0.13577516
178	0x3e7afa61	0.24509574
179	0xbe295e5e	-0.16539904
180	0x3e027a90	0.12742066
181	0x3cba9487	0.022775901
182	0x3d99c905	0.075090446
183	0x3d334f68	0.0437769
184	0x3e06b252	0.13153961
185	0xbd2b3981	-0.041802887
186	0xbe4a8cfb	-0.19780342
187	0xbda97dcb	-0.08275946
188	0x3ddde928	0.10835487
189	0xbde1839b	-0.1101143
190	0x3dd29e94	0.102841526
191	0xbe30cb9c	-0.17265171
192	0x3e8186c8	0.25298142
193	0x3e10d465	0.14143522
194	0x3d360f76	0.04444834
195	0xbde4323d	-0.11142395
196	0xbe314a87	-0.17313586
197	0x3c5f852f	0.013642593
198	0xbdcb07ef	-0.099136226
199	0x3e1d48ec	0.15359849
200	0xbe62a4de	-0.22133204
201	0x3db69eab	0.08916982
202	0x3e584499	0.21119918
203	0x3e15f85f	0.14645527
204	0x3d857bec	0.06517777
205	0xbe526ee5	-0.20550115
206	0x3e4fa32b	0.20277087
207	0xbce172e5	-0.027520606
208	0xbeb46627	-0.35234186
209	0x3e468d8c	0.19389933
210	0xb9b6af3d	-0.00034844308
211	0xbb5da08b	-0.0033817615
212	0x3ec81bd3	0.39083728
213	0x3e03655a	0.12831631
214	0xbe692dd7	-0.22771393
215	0x3e20af2e	0.15691826
216	0xbe8adc83	-0.27121362
217	0x3d78d4a0	0.06074965
218	0xbe20fcf0	-0.15721488
219	0xbdf8f448	-0.12155968
220	0xbcbca0b1	-0.023025842
221	0xbef8bd12	-0.4858175
222	0xbefd9bba	-0.49532872
223	0x3e2b5a42	0.1673365
224	0x3c6098d3	0.013708311
225	0xbe71d362	-0.23615792
226	0x3e6f5fab	0.23376338
227	0x3db73365	0.089453496
228	0x3cef392c	0.029202066
229	0xbe210205	-0.15723427
230	0x3c274d7f	0.010211348
231	0x3e82e302	0.25563818
232	0x3e25100d	0.16119404
233	0xbe6d7cf4	-0.23192197
234	0x3e74939e	0.23884436
235	0xbb2cbac7	-0.0026356445
236	0x3e1c6e16	0.1527637
237	0x3e369cb4	0.17833215
238	0x3e6890ad	0.2271144
239	0xbe33ed6c	-0.17571038
240	0x3e4eb608	0.20186627
241	0xbe3ccf3f	-0.18438433
242	0x3d0991b0	0.033586204
243	0xbe23786a	-0.15963903
244	0xbd42e84f	-0.047584828
245	0xbc6275dd	-0.013822046
246	0xbd2c7c19	-0.042110536
247	0xbc91e91c	-0.01781135
248	0x3a3e287b	0.0007253957
249	0x3e851311	0.2599111
250	0x3e240b06	0.1601983
251	0x3e01c7ca	0.1267387
252	0x3dd1a2a3	0.102360986
253	0x3e38c738	0.18044746
254	0xbc82175c	-0.01588028
255	0x3c482ce9	0.012217739

model.conv2.conv.0.bias f4 [24]
0	0x3cb3ec51	0.02196327
1	0x3d48ee14	0.049055174
2	0x3e946f6c	0.28991258
3	0x3e0b2e49	0.13591875
4	0xbd955f21	-0.07293535
5	0x3e73ec1a	0.23820534
6	0xbd27f082	-0.04100085
7	0xba872a52	-0.0010312295
8	0x3d9e6138	0.07733387
9	0xbe518c29	-0.20463623
10	0xbc463c70	-0.01209937
11	0xbe84088d	-0.25787774
12	0x3d90b08b	0.07064923
13	0x3db6ce07	0.08926015
14	0x3d62c827	0.05536666
15	0xbe67217c	-0.22571367
16	0xbe7c6d61	-0.246511
17	0x3e1efcdb	0.15526144
18	0x3e9e56f1	0.30925706
19	0xbe84ccec	-0.25937593
20	0x3e04c1ea	0.12964597
21	0xbe23beaf	-0.15990709
22	0xbc0a1bca	-0.008429477
23	0x3e872b33	0.26400146

model.conv2.conv.2.weight f4 [24, 1, 3, 3]
0	0x3e873e55	0.26414743
1	0xbe70eab7	-0.23527037
2	0x3e676700	0.22597885
3	0x3e3cff56	0.18456778
4	0x3b963422	0.0045838514
5	0x3eaf9312	0.34291893
6	0xbde68551	-0.11255897
7	0xbd6e5e47	-0.05819538
8	0xbe0a3db7	-0.13500105
9	0x3d9d6ecd	0.07687149
10	0x3de2da56	0.110768005
11	0x3da0deff	0.07855033
12	0xbe2e55a0	-0.17024851
13	0xbe002bd5	-0.1251672
14	0x3e369a2e	0.17832252
15	0xbe89897e	-0.2686271
16	0xbc3ce7f7	-0.011529914
17	0x3d8d9f99	0.069152065
18	0xbd8cd006	-0.06875615
19	0x3e0a10e7	0.1348301
20	0x3c9b73d5	0.018976131
21	0x3e852972	0.26008183
22	0xbd3cfb36	-0.04613801
23	0xbe7e0593	-0.24806814
24	0x3e89aad4	0.26888144
25	0x3cc2bd4d	0.023771906
26	0xbe1c9386	-0.1529065
27	0xbf225f82	-0.63426983
28	0xbe3d660c	-0.18495959
29	0xbf1d1411	-0.61358744
30	0xbe8ba763	-0.27276143
31	0x3d769cde	0.060208194
32	0xbf1a8bd3	-0.60369605
33	0xbf06bda7	-0.52633137
34	0xbef7fee1	-0.48436645
35	0xbe6a41e4	-0.22876698
36	0x3f16c562	0.5889493
37	0x3e80674a	0.25078803
38	0x3eeb4743	0.45952806
39	0x3da89287	0.08231073
40	0xbe441bae	-0.19151184
41	0x3e25451a	0.16139641
42	0x3eb8aaf3	0.36067924
43	0x3eea42b2	0.4575401
44	0xbcfe2fba	-0.031028617
45	0x3e9b73b9	0.30361727
46	0x3e7280fd	0.23682018
47	0x3e96c4f1	0.2944713
48	0xbe96f14b	-0.29480967
49	0x3e925407	0.28579733
50	0xbe842ac6	-0.25813884
51	0x3eb731f7	0.35780308
52	0x3c572db6	0.013133457
53	0xbe86aa35	-0.26301733
54	0x3da8de25	0.08245496
55	0xbdcefc51	-0.10106719
56	0xbe5651af	-0.20929597
57	0xbd9c3257	-0.07626789
58	0xbbde44cb	-0.006783103
59	0x3eb801a0	0.3593874
60	0xbd27bf02	-0.040953644
61	0x3e7280b3	0.23681907
62	0x3e71dc0e	0.236191
63	0x3c91b759	0.017787622
64	0x3d8bf21e	0.068332896
65	0xbe5fdfb3	-0.21862678
66	0xbe8af856	-0.2714259
67	0xbdce3372	-0.10068406
68	0xbe9f1db3	-0.31077346
69	0xbe1c66e2	-0.15273622
70	0x3c8793de	0.01655
71	0xbe6403b4	-0.22267038
72	0xbe812cfc	-0.25229633
73	0xbe04112c	-0.12897176
74	0xbddb39e1	-0.10704399
75	0xbe7c66bd	-0.24648567
76	0x3b42d4c0	0.002972886
77	0xbd64169f	-0.055685636
78	0x3d4fc01c	0.05072032
79	0x3c93f6ca	0.018062014
80	0xbe1dda3b	-0.1541528
81	0xbdebcd76	-0.11513798
82	0xbb7c1295	-0.0038463224
83	0xbe4fd0de	-0.2029452
84	0x3cdba4c4	0.026811965
85	0xbcb14239	-0.021638023
86	0x3e09150a	0.13386932
87	0x3da0d6b5	0.07853452
88	0x3e7d1568	0.24715197
89	0xbc67d7ff	-0.014150619
90	0xbe86e32e	-0.263452
91	0x3e0dcda3	0.13847975
92	0xbe7dd60a	-0.2478868
93	0xbd79a6a3	-0.060949933
94	0xbdf520fb	-0.11969181
95	0xbe18f3ab	-0.14936702
96	0xbe1bfeb8	-0.15233886
97	0x3e9069b7	0.28205654
98	0x3e22c80d	0.15896626
99	0x3e23bd2b	0.1599013
100	0x3ebe5f4c	0.3718208
101	0xbe793f27	-0.24340497
102	0x3dd6c4aa	0.104867294
103	0x3e81a9f9	0.2532499
104	0x3e876287	0.26442358
105	0xbe5df3a4	-0.21674973
106	0x3e23031e	0.15919158
107	0xbe130b29	-0.14359726
108	0x3da399ef	0.07988345
109	0x3c9e9c89	0.019361751
110	0xbe2f8a01	-0.17142488
111	0xbe69a74a	-0.22817722
112	0xbe15915f	-0.14606236
113	0x3e76a0ad	0.2408473
114	0x3e8011ac	0.25013483
115	0xbe5457d5	-0.2073663
116	0xbcf9c2c9	-0.030488389
117	0x3e07d890	0.13266206
118	0xbe3a7325	-0.18207987
119	0x3eba075b	0.36333737
120	0x3ec737e5	0.38909832
121	0x3ded2a2b	0.115803085
122	0xbe07da07	-0.13266765
123	0x3e5ac396	0.21363673
124	0x3e49331d	0.19648404
125	0x3ebfee0e	0.3748631
126	0xbe52a8e4	-0.20572239
127	0xbea4e696	-0.32207173
128	0x3da67174	0.08127108
129	0xbba32b52	-0.0049795294
130	0xbdbe30eb	-0.09286674
131	0xbe3fba72	-0.18723467
132	0xbe501c46	-0.20323285
133	0x3e7d6f19	0.24749412
134	0xbe12bb5f	-0.14329289
135	0x3e6555eb	0.22396056
136	0x3e8ffccf	0.28122565
137	0x3cda38b1	0.02663836
138	0x3d5eb622	0.054372914
139	0xbd21b54a	-0.03947953
140	0x3e59e32c	0.21278065
141	0xbea22b79	-0.31673792
142	0x3ded8136	0.11596911
143	0xbd90291f	-0.07039093
144	0x3e13fbf1	0.14451577
145	0xbc14bf24	-0.009078775
146	0xbe05f435	-0.13081439
147	0xbd3278fe	-0.04357242
148	0x3e30a579	0.17250623
149	0xbe7491e2	-0.23883775
150	0xbe5f80c4	-0.21826464
151	0xbda84810	-0.0821687
152	0xbe034df3	-0.12822704
153	0x3ec5fbd4	0.38668692
154	0x3ed55363	0.41665182
155	0xbc954cc5	-0.018225083
156	0x3ee47b4d	0.4462532
157	0x3c94a7a3	0.018146342
158	0xbe4f131a	-0.2022213
159	0xbdbb47eb	-0.09144577
160	0xbe3675a0	-0.17818308
161	0xbeb97eca	-0.36229545
162	0xbeacfaed	-0.3378519
163	0xbe93f264	-0.28895867
164	0x3d12d018	0.035842985
165	0x3e444691	0.19167544
166	0x3eb1f179	0.34754542
167	0x3e935e2b	0.28782782
168	0xbdeef79e	-0.11668323
169	0x3d658ae8	0.056040674
170	0xbe4bc621	-0.19899799
171	0x3ebcc843	0.36871538
172	0xbd80c1ca	-0.06286962
173	0x3ec52f3c	0.385126
174	0x3e8bfd47	0.27341673
175	0x3ea75fea	0.32690364
176	0x3ea06376	0.31325883
177	0xbc938b72	-0.018010829
178	0x3ed41c21	0.4142771
179	0x3e82a76e	0.25518364
180	0x3e926b78	0.28597617
181	0x3dc6b466	0.09702377
182	0x3e960731	0.29302362
183	0x3e8de455	0.27713266
184	0x3e337fa5	0.17529161
185	0x3e9e8d90	0.3096738
186	0x3c7d9bea	0.015479067
187	0x3e891d70	0.26780272
188	0x3e1bcb79	0.15214337
189	0x3e7525b2	0.23940161
190	0x3eadbe12	0.33934075
191	0x3e0ac8b8	0.1355313
192	0xbddde2d3	-0.10834279
193	0xbd7aaa6b	-0.06119768
194	0x3de1348b	0.1099635
195	0x3df45c67	0.11931687
196	0xbd946a1c	-0.07246801
197	0x3e9fe2a8	0.31227612
198	0x3e2fc85b	0.17166273
199	0xbe95c30d	-0.29250374
200	0xbe8ed8f3	-0.27899894
201	0xbda9744d	-0.08274136
202	0xbe812657	-0.25224563
203	0xbe1dcfaf	-0.15411256
204	0xbe566fa0	-0.20941019
205	0xbe87a6b6	-0.26494378
206	0xbea8a89d	-0.32941142
207	0xbd96bbbb	-0.073600255
208	0x3eb2b2bb	0.34901986
209	0x3e2ca410	0.1685946
210	0x3eb600e7	0.35547563
211	0x3dd1de9d	0.10247538
212	0x3dc4b313	0.09604468
213	0x3e387a6c	0.1801545
214	0x3da4bb1f	0.08043503
215	0xbe6fbd36	-0.23412022

model.conv2.conv.2.bias f4 [24]
0	0xbe1a2bf3	-0.15055828
1	0xbc74afa8	-0.014934458
2	0x3d4ad345	0.04951789
3	0x3e581c41	0.21104528
4	0x3d25d349	0.0404847
5	0x3e868cd3	0.26279315
6	0x3db364ee	0.08759485
7	0xbdda7124	-0.10666111
8	0xbe43eeae	-0.19134018
9	0xbe5033f1	-0.20332314
10	0xbe297fcf	-0.16552661
11	0x3df215bf	0.11820554
12	0x3e4a077d	0.19729419
13	0x3e93b17d	0.2884635
14	0xbd0f772f	-0.03502577
15	0xbcdd8d4e	-0.027044918
16	0xbd67466b	-0.05646364
17	0x3e0545fc	0.13014978
18	0x3dd440a8	0.10363895
19	0xbcfa776a	-0.03057452
20	0x3cf14bb4	0.029455043
21	0x396904cd	0.000222224
22	0x3e78d99c	0.24301761
23	0xbd7c39bb	-0.061578494

model.conv2.conv.5.weight f4 [16, 24, 1, 1]
0	0xbe078fec	-0.13238496
1	0x3d3b9f4f	0.045806225
2	0xbd3a09a2	-0.045419343
3	0xbd5aea60	-0.053446174
4	0x3e4db72f	0.2008941
5	0xbd2646fb	-0.040595036
6	0xbd90b331	-0.07065428
7	0xbde3aad7	-0.111165695
8	0xbc42f49d	-0.011899141
9	0xbe3b2b89	-0.18278326
10	0x3d0205b7	0.03174373
11	0xbc4bf6e9	-0.012449005
12	0x3dc01f51	0.09380973
13	0xbd5ceab1	-0.053934757
14	0x3cec5930	0.028851122
15	0x3d07c853	0.03315003
16	0x3e153c18	0.14573705
17	0xbec95ded	-0.39329472
18	0x3da5ae02	0.0808983
19	0x3e94daf8	0.2907331
20	0xbe57d079	-0.2107562
21	0xbc0ac542	-0.0084698815
22	0xbec168b6	-0.377752
23	0xbdc28071	-0.094971545
24	0xbdc63959	-0.09678907
25	0xbe0b37c3	-0.1359549
26	0x3dd00115	0.101564564
27	0xbe702ad8	-0.23453844
28	0x3e8c76dc	0.27434433
29	0xbe3a2515	-0.18178208
30	0xbc4032f9	-0.011730903
31	0xbb0584af	-0.0020373275
32	0x3e0e3ccc	0.1389038
33	0xbda159fa	-0.0787849
34	0x3d3d74ad	0.04625385
35	0x3d297de8	0.04137984
36	0x3df0a330	0.117498755
37	0xbcf7d33e	-0.030252095
38	0x3d940d65	0.07229117
39	0xbe061045	-0.13092144
40	0xbe15ce50	-0.14629483
41	0x3e83570b	0.25652346
42	0xbe775483	-0.24153332
43	0x3e56ba19	0.20969428
44	0xbd887ec7	-0.06664806
45	0x3e022617	0.12709843
46	0xbdc03ceb	-0.09386619
47	0xbe63f860	-0.22262716
48	0xbd301e35	-0.042997558
49	0x3db897a8	0.09013301
50	0x3e5ff049	0.21869005
51	0x3e59dae0	0.212749
52	0xbe2c20b2	-0.16809347
53	0x3e1a3045	0.15057476
54	0xbe44bc60	-0.19212484
55	0x3daadd05	0.083429374
56	0x3d7b81fb	0.061403256
57	0x3e0382f1	0.12842919
58	0xbdd932e9	-0.106054135
59	0xbd1e4519	-0.038640115
60	0x3d9ec51b	0.07752439
61	0xbda6783d	-0.081284024
62	0xbe0d51be	-0.13800713
63	0xbe33a6db	-0.17544119
64	0x3c73cdad	0.01488058
65	0x3f1253d1	0.57159144
66	0x3e57a616	0.2105945
67	0xbe0d2cc2	-0.13786605
68	0x3e00c628	0.1257559
69	0xbd15f57b	-0.03661106
70	0x3e3c63c4	0.18397433
71	0x3d3a6293	0.045504164
72	0xbdbfb83f	-0.09361314
73	0x3e44f23c	0.1923303
74	0xbe1b06a4	-0.15139252
75	0xbd8b7e46	-0.06811194
76	0xbdf02fe6	-0.11727886
77	0x3d47a047	0.048736837
78	0xbd8523c5	-0.06500963
79	0x3da27f72	0.079344645
80	0xbe015acd	-0.12632294
81	0x3e0e64b6	0.13905606
82	0xbe2169ac	-0.15762967
83	0x3e176aed	0.14786883
84	0xbddbeabb	-0.10738131
85	0x3e3db508	0.18526089
86	0xbdb3a9c6	-0.08772616
87	0x3c69f66d	0.014279944
88	0xbce7edaf	-0.028311579
89	0x3e6f4ce5	0.23369177
90	0x3dc2e5ec	0.0951651
91	0xbec6bd5c	-0.38816345
92	0x3db7d42b	0.08976015
93	0xbd978039	-0.073975034
94	0x3ebe8a02	0.37214667
95	0x3d3c5f6c	0.04598944
96	0xbd135e86	-0.035978816
97	0xbdd19081	-0.1023264
98	0x3dd5ab5e	0.10433076
99	0xbe48ed8b	-0.19621865
100	0xbd37805e	-0.044800155
101	0x3e24871f	0.1606717
102	0x3e0abc39	0.13548364
103	0x3d8b68bd	0.068070866
104	0xbe4e7b8b	-0.20164315
105	0x3e1fb7dc	0.1559748
106	0xbd3fa5a2	-0.04678882
107	0xbd3c89ea	-0.046029963
108	0x3bb6487f	0.0055628414
109	0x3e5abd7d	0.21361347
110	0x3e2aabdb	0.1666712
111	0x3d600c6f	0.054699358
112	0x3ddb58ef	0.10710322
113	0x3cb88947	0.022526396
114	0x3db26eb0	0.08712518
115	0xbe807990	-0.25092745
116	0x3e0844d0	0.133075
117	0xbdae369b	-0.08506509
118	0x3dc23d84	0.094843894
119	0x3e39cbce	0.18144152
120	0x3e4f49f1	0.2024305
121	0xbdeae926	-0.11470251
122	0xbe393ab5	-0.18088801
123	0x3e11c26b	0.14234321
124	0x3e0aeb3f	0.13566302
125	0xbd04484f	-0.03229552
126	0x3c2bac42	0.010478081
127	0xbdff89ef	-0.124774806
128	0x3ddec7e7	0.10877972
129	0x3e515e5e	0.20446154
130	0xbdc66785	-0.096877135
131	0x3dfd110e	0.123567685
132	0x3e114293	0.14185552
133	0x3e5425d9	0.20717563
134	0xbd704c64	-0.0586666
135	0x3c073c16	0.008254072
136	0x3e225c0e	0.15855429
137	0xbe1ddbf3	-0.15415935
138	0xbbcec7a0	-0.0063104182
139	0xbdc0482d	-0.093887664
140	0x3e24e73a	0.16103831
141	0x3e4e0fc4	0.20123202
142	0xbdbb78b8	-0.09153885
143	0x3d2ee528	0.04269901
144	0xbd8fdd70	-0.07024658
145	0x3df3ae64	0.11898497
146	0xbde8310a	-0.113374785
147	0x3dd3ecee	0.10347925
148	0x3e5ab869	0.2135941
149	0xbe6018cc	-0.2188446
150	0xbe2b15c6	-0.16707525
151	0xbdfbc183	-0.12292769
152	0x3e113c6a	0.14183202
153	0x3deeee6e	0.116665706
154	0xbe2a539e	-0.1663346
155	0x3d3c4f03	0.04597379
156	0xbdf546e3	-0.11976411
157	0xbe15e38a	-0.1463758
158	0x3e2e2428	0.1700598
159	0x3d93b56f	0.0721234
160	0xbd94e829	-0.072708435
161	0xbeaab835	-0.33343664
162	0xbcc86e1e	-0.02446657
163	0x3e8f8491	0.28030828
164	0xbe041208	-0.12897503
165	0xbe417148	-0.1889087
166	0xbdf743bc	-0.12073466
167	0x3b629b9c	0.0034577614
168	0x3dcac2e2	0.09900452
169	0xbda378a6	-0.07981996
170	0x3e27529f	0.16340111
171	0x3e7f0649	0.24904741
172	0x3cdff35d	0.027337724
173	0x3d78aea0	0.06071341
174	0x3e847f73	0.25878486
175	0x3b9ed661	0.0048473333
176	0x3cfb4105	0.030670652
177	0x3e47dd33	0.19517975
178	0x3e55bd81	0.20873071
179	0xbded79ca	-0.11595495
180	0x3e066968	0.13126147
181	0x3dc7a6d7	0.09748619
182	0xbdc2b49f	-0.09507107
183	0x3e420e0c	0.18950671
184	0xbdca8324	-0.09888294
185	0x3ebd254d	0.3694252
186	0x3dd9c785	0.106337585
187	0xbdb0c74b	-0.08631762
188	0x3d9e4571	0.07728089
189	0x3e1ea5a1	0.1549287
190	0x3e8725e4	0.26396096
191	0x3ca965f4	0.020678498
192	0xbd675e81	-0.05648661
193	0x3d61c378	0.055118054
194	0x3ddbd6a3	0.10734298
195	0x3e31b4c1	0.17354108
196	0x3e82d583	0.25553522
197	0x3d1f1fd1	0.038848702
198	0xbe055655	-0.13021214
199	0xbe29d4ba	-0.16585055
200	0x3bb74178	0.0055925213
201	0x3e46b59c	0.19405216
202	0xbaf310d5	-0.0018544445
203	0xbd36dfa5	-0.044646878
204	0xbe3c8f3a	-0.18414012
205	0xbe27222e	-0.16321632
206	0xbe462bb8	-0.19352615
207	0x3e162b6b	0.14665
208	0xbd129c71	-0.035793725
209	0xbea7a175	-0.3274037
210	0xbe07a7f5	-0.13247664
211	0x3e06cd12	0.13164166
212	0xbd3c5408	-0.045978576
213	0x3d93adf5	0.07210914
214	0xbd0b7577	-0.03404757
215	0xbe5305e0	-0.2060771
216	0xbe21ed1d	-0.15813108
217	0xbc107571	-0.008817063
218	0xbe3b93fd	-0.18318172
219	0xbe4be190	-0.19910264
220	0x3e2ed861	0.1707473
221	0xbd1aa945	-0.037759084
222	0xbdfd66dc	-0.123731345
223	0xbda850db	-0.08218547
224	0xbe2bf6e5	-0.16793402
225	0x3e1c03c2	0.15235808
226	0xbd6112dc	-0.054949626
227	0xbdfd5418	-0.12369555
228	0xbe39fb5c	-0.18162292
229	0x3d96fa91	0.073720105
230	0xbcd78057	-0.026306314
231	0xbd014362	-0.031558402
232	0xbd751d57	-0.059842434
233	0xbd7702e0	-0.060305476
234	0x3db88d24	0.090112954
235	0x3e9f7725	0.31145588
236	0xbe319670	-0.17342544
237	0xbd2606c6	-0.040533803
238	0xbeadfd1f	-0.3398218
239	0xbdc7eaa1	-0.09761549
240	0x3e381f9e	0.17980811
241	0xbc55b1af	-0.013042851
242	0x3e853b8f	0.26022002
243	0xbbaacc79	-0.0052123633
244	0xbe67fff7	-0.22656237
245	0xbd85cb57	-0.065329246
246	0x3e5eb2f1	0.21747948
247	0xbe1bc92d	-0.15213461
248	0x3daf2aaa	0.085530594
249	0x3d42ae9b	0.047529798
250	0x3d920ad9	0.07130975
251	0x3e0fc7f7	0.14041124
252	0xbc7c2b77	-0.015391222
253	0x3e5a4eef	0.21319173
254	0xbe280411	-0.16407801
255	0xbd4ac3e5	-0.049503226

model.conv2.conv.5.bias f4 [16]
0	0xbca09bb9	-0.019605504
1	0x3e0d09fa	0.13773337
2	0x3d6c541a	0.057697393
3	0x3dbd9636	0.09257166
4	0x3d8aacdc	0.067712516
5	0xbcb30ab6	-0.021855693
6	0xbd3d24d1	-0.04617769
7	0xbe105a91	-0.14097048
8	0xbe49bdbb	-0.19701283
9	0xbe161c5d	-0.14659257
10	0x3e845bc4	0.25851262
11	0xbdaaada3	-0.083339
12	0x3de52b1f	0.11189865
13	0x3dfce839	0.123489805
14	0xbd06d0ac	-0.03291385
15	0xbdadc0e9	-0.0848406

model.conv3.conv.0.weight f4 [48, 16, 1, 1]
0	0xbe10472d	-0.14089651
1	0xbdc5d5b1	-0.09659899
2	0x3d9209a9	0.07130749
3	0xbe597088	-0.21234334
4	0xbcdc3992	-0.02688292
5	0x3dec6d85	0.11544327
6	0x3e54e3fd	0.20790096
7	0x3d69af20	0.057051778
8	0x3d403db6	0.046933852
9	0x3e493391	0.19648577
10	0x3de69aff	0.11260032
11	0x3da1e1c4	0.079043895
12	0xbdc7534c	-0.097326845
13	0xbe4a79f6	-0.19773087
14	0xbd38e5ed	-0.04514115
15	0xbd22b953	-0.03972752
16	0xbdbffc47	-0.0937429
17	0xbd3b18ce	-0.045677952
18	0x3e2fc39f	0.17164467
19	0x3e4959bf	0.19663142
20	0xbd71c860	-0.059028983
21	0xbe8e5965	-0.27802578
22	0xbe3c116e	-0.18366024
23	0xbe17ad96	-0.14812312
24	0x3def6420	0.11689019
25	0xbe455670	-0.19271255
26	0x3cb8404d	0.022491599
27	0xbdb4ba6b	-0.08824619
28	0xbd83ae50	-0.06429732
29	0x3e0cc2e4	0.1374622
30	0xbe181f93	-0.14855795
31	0x3c96762a	0.018366892
32	0xbe47b29a	-0.19501725
33	0xbcad55d9	-0.0211591
34	0x3d118f7b	0.035537224
35	0xbc50ceff	-0.012744664
36	0xbdc3358b	-0.09531697
37	0x3d8eb41e	0.069679484
38	0xbd498a0d	-0.04920392
39	0xbddfaabd	-0.109212376
40	0xbe37cad7	-0.17948471
41	0xbd69c42d	-0.057071853
42	0xbe6934cf	-0.22774051
43	0x3e5fc2f9	0.2185172
44	0xbdf59d20	-0.1199286
45	0xbe00b6a6	-0.12569675
46	0x3cb46c27	0.022024227
47	0x3d6f8a01	0.05848122
48	0xbd460135	-0.048340995
49	0x3df0ad56	0.11751811
50	0xbe289cd1	-0.1646607
51	0x3df5ea43	0.120075725
52	0x3dc1bff2	0.09460439
53	0xbda95323	-0.0826781
54	0xbdfcad3a	-0.12337728
55	0x3e0a92fd	0.13532634
56	0x3d4a3066	0.049362563
57	0x3e5a00ca	0.21289364
58	0x3e4467ac	0.19180173
59	0xbe0b3bff	-0.13597105
60	0xbdc5020c	-0.09619531
61	0xbccfdb86	-0.025373232
62	0xbe68c51c	-0.22731441
63	0xbd72b507	-0.059254672
64	0xbe7516e8	-0.2393452
65	0x3dc20613	0.09473815
66	0x3e51f1b1	0.20502354
67	0x3d1b78f3	0.037957143
68	0xbe38f737	-0.18063055
69	0xbe5192a1	-0.2046609
70	0xbdf34152	-0.11877693
71	0x3d91c766	0.0711811
72	0xbc4bdfed	-0.012443525
73	0x3ce81706	0.02833129
74	0x3e81185d	0.252139
75	0x3dc7d913	0.097582005
76	0x3d8a02b7	0.06738799
77	0xbd562b5e	-0.052287452
78	0x3dfd8ec5	0.12380747
79	0x3da89a3a	0.082325414
80	0xbe4b021a	-0.1982502
81	0xbdef1103	-0.116731666
82	0xbccde34a	-0.025132794
83	0x3d6cc763	0.057807337
84	0x3ddf9d60	0.10918689
85	0xbe3167cb	-0.1732475
86	0xbe577ab0	-0.21042895
87	0xbbb72e8e	-0.0055902665
88	0x3b07195f	0.0020614488
89	0x3de05c07	0.10955053
90	0xbdb78bdb	-0.08962222
91	0x3e6ef602	0.23336032
92	0xbbb5c729	-0.0055474234
93	0x3e2489c1	0.16068174
94	0xbe346dfc	-0.1762008
95	0x3d9bd4b1	0.07608927
96	0xbe03bd5e	-0.12865207
97	0xbe2f55bf	-0.17122553
98	0x3e5f3536	0.21797642
99	0xbe4f3a25	-0.20237024
100	0x3e85e799	0.26153257
101	0xbcc61c87	-0.024183525
102	0xbd7d8fc4	-0.061904684
103	0x3e5e5b6b	0.2171456
104	0xbc81dd7d	-0.015852684
105	0x3db856d0	0.09000933
106	0x3e787d07	0.24266444
107	0xbe8080e4	-0.25098336
108	0x3e812b30	0.25228262
109	0xbd1f699d	-0.03891908
110	0xbdcadd70	-0.09905517
111	0x3d8d77cb	0.06907614
112	0x3e3747c6	0.17898473
113	0xbdec3424	-0.115333825
114	0xbe34e269	-0.17664494
115	0x3dff69f8	0.12471384
116	0xbdef40b7	-0.11682265
117	0x3d6e893a	0.05823634
118	0xbcc5cebd	-0.024146432
119	0x3de8cf9c	0.11367723
120	0x3e5cdcd7	0.21568619
121	0xbd994d75	-0.07485477
122	0xbdee78bd	-0.11644123
123	0x3e0b3825	0.13595636
124	0xbb581993	-0.0032974228
125	0xbd87d201	-0.06631852
126	0xbe613932	-0.21994475
127	0x3e3ecf0a	0.18633667
128	0x3e3738f1	0.17892815
129	0xbdf1635e	-0.11786531
130	0xbed5e1fc	-0.41773975
131	0x3e2cd3c5	0.16877659
132	0x3e134367	0.1438118
133	0x3d1fd56b	0.03902189
134	0x3ea4e29d	0.32204142
135	0xbecd7833	-0.40130767
136	0xbea785c7	-0.32719252
137	0xbe9e8a50	-0.309649
138	0xbce52d5c	-0.02797573
139	0x3d7763f1	0.060398046
140	0xbd1a5f4a	-0.03768853
141	0x3f43de03	0.7651064
142	0x3e28f25a	0.164987
143	0xbe23253a	-0.1593217
144	0x3db90c51	0.09035552
145	0x3d88b3dd	0.06674931
146	0x3de9c48a	0.1141444
147	0x3d8cc732	0.06873931
148	0x3d84892f	0.06471478
149	0x3e31730b	0.17329042
150	0x3e56fd68	0.20995104
151	0x3e3583f9	0.17726125
152	0xbafefaef	-0.0019453446
153	0x3e9a707d	0.30163947
154	0xbe0e5c7e	-0.1390247
155	0x3e0b0cb5	0.13579066
156	0x3e1088d6	0.14114699
157	0x3dabad48	0.0838266
158	0xbccd4925	-0.025059292
159	0xbe5dc1af	-0.21655916
160	0x3ea0e652	0.3142572
161	0xbd7b5c23	-0.061367165
162	0xbc4fca4e	-0.012682511
163	0x3dffeb88	0.12496096
164	0xbe95f9e7	-0.29292223
165	0x3d228bcb	0.0396841
166	0x3cce784e	0.02520385
167	0x3e0abfc0	0.1354971
168	0xbe11141c	-0.14167827
169	0x3e175b0f	0.1478083
170	0x3db06b5d	0.08614228
171	0x3e6baff8	0.23016346
172	0x3e3181a8	0.17334616
173	0x3d276c46	0.040874742
174	0xbe4c3ac5	-0.19944294
175	0x3e23f021	0.1600957
176	0x3d23e21f	0.040010568
177	0xbd18c3b7	-0.037296023
178	0xbe72467e	-0.23659703
179	0xbd194939	-0.037423346
180	0xbe2038d9	-0.15646686
181	0x3e8e3d56	0.2778117
182	0x3e2c3b44	0.16819483
183	0x3e28dea3	0.16491179
184	0x3e2eebd2	0.17082146
185	0xbe4fbbaa	-0.20286432
186	0xbdef9c8c	-0.11699781
187	0xbdefac4d	-0.11702786
188	0xbe01042e	-0.1259925
189	0x3e7b48a7	0.24539433
190	0x3e1c8cbf	0.15288065
191	0x3e7e4e88	0.24834645
192	0x3da8c550	0.082407594
193	0xbe3767a7	-0.17910634
194	0xbe1754e1	-0.14778472
195	0x3e0b4de0	0.13603926
196	0x3e9f7961	0.31147292
197	0x3d0bf2f2	0.034167238
198	0xbc3d7cb7	-0.011565379
199	0xbe8936d0	-0.2679963
200	0xbdef95db	-0.116985045
201	0x3e53f41f	0.20698594
202	0xbe435554	-0.19075519
203	0x3e2fdbd9	0.17173709
204	0x3daceeb1	0.08443964
205	0xbe2c2614	-0.168114
206	0x39a00162	0.00030518608
207	0xbe0fc64b	-0.14040487
208	0x3d58615d	0.052827228
209	0xbda7334b	-0.0816408
210	0xbe847d12	-0.2587667
211	0x3d02de0f	0.031950053
212	0x3d5c8e9f	0.05384695
213	0xbdebfb22	-0.11522509
214	0x3e3c44cc	0.18385619
215	0xbe8382ba	-0.25685674
216	0xbe783226	-0.2423788
217	0xbe1b2394	-0.1515029
218	0xbdf92369	-0.12164957
219	0xbbeb8684	-0.0071876664
220	0xbd9b5933	-0.07585373
221	0x3dff4c34	0.124657065
222	0xbe5d8baa	-0.21635309
223	0x3d052d18	0.032513708
224	0xbc9b5fec	-0.018966638
225	0x3e0e2b7d	0.13883777
226	0x3e72e8b6	0.23721585
227	0x3de8583e	0.11344956
228	0xbe0c8fbf	-0.1372671
229	0xbe86abf0	-0.26303053
230	0xbd05e2d4	-0.032687023
231	0xbdd30759	-0.10304136
232	0x3ded7dae	0.11596237
233	0x3d6be550	0.057591736
234	0x3e54ffc6	0.20800695
235	0x3e00d79b	0.12582247
236	0xbd237ff1	-0.039916936
237	0xbd396e27	-0.045271065
238	0x3d325263	0.0435356
239	0xbdba2500	-0.090890884
240	0x3e918340	0.28420448
241	0xbe8c23b7	-0.27370998
242	0x3e254b68	0.16142046
243	0xbddb3cdd	-0.10704968
244	0xbe909d70	-0.28245115
245	0x3d608047	0.054809835
246	0x3df4fcbc	0.11962268
247	0x3e542835	0.20718463
248	0xbc3325b8	-0.010934286
249	0xbde24871	-0.11048973
250	0xbd41ce3b	-0.047315817
251	0xbdbc8a8d	-0.09206114
252	0xbd8068f0	-0.06270015
253	0x3d128e9e	0.03578054
254	0x3e801843	0.2501851
255	0x3e0d95ad	0.13826628

model.conv3.conv.0.bias f4 [48]
0	0xbddb29e8	-0.10701352
1	0xbde63abf	-0.11241674
2	0x3df55bff	0.119804375
3	0x3e0fe069	0.1405045
4	0x3dc1b48a	0.09458263
5	0xbe922ce8	-0.28549886
6	0x3e37e261	0.1795745
7	0xbe1dc6b4	-0.1540783
8	0x3e84de69	0.25950935
9	0x3e226d2f	0.15861963
10	0x3df538e4	0.11973742
11	0x3e8cb085	0.27478424
12	0x3e1f4ddf	0.15557049
13	0x3e1ffc2b	0.15623538
14	0xbe0a50d9	-0.13507403
15	0x3e9b93c5	0.30386177
16	0xbd933830	-0.07188451
17	0x3e391ae4	0.18076664
18	0xbd891362	-0.0669315
19	0x3e5e91f8	0.2173537
20	0x3e359b69	0.17735066
21	0xbea82335	-0.3283936
22	0x3d5c8bcb	0.053844254
23	0xbe66d15f	-0.22540806
24	0xbe2b45b6	-0.16725811
25	0xbe50c79f	-0.2038865
26	0x3d6357e1	0.05550373
27	0xbe4acdbf	-0.19805048
28	0xbe07f715	-0.13277848
29	0xbe254ebf	-0.1614332
30	0xbdc27bbc	-0.09496257
31	0xbe7b0a8c	-0.24515742
32	0xbdab29db	-0.08357593
33	0xbd462e9f	-0.048384305
34	0xbe2074b1	-0.15669514
35	0xbe1efd6c	-0.1552636
36	0x3e209a8b	0.15683953
37	0xbe29bc02	-0.16575626
38	0xbe46a960	-0.19400549
39	0xbe16d604	-0.14730078
40	0xbe460cb7	-0.19340788
41	0x3dd5f097	0.104462795
42	0xbe260d21	-0.16215946
43	0xbcd96e1d	-0.026541764
44	0x3dd4aa19	0.10384006
45	0xbe606d64	-0.21916729
46	0x3e4df672	0.20113543
47	0xbda9644b	-0.082710825
