pretrained/sice.pth (torch, 243597 bytes, 186 tensors)

model.first_conv.conv.0.weight f4 [6, 3, 1, 1]
0	0x3f0b1155	0.5432332
1	0x3f237ea1	0.63865095
2	0x3e0c8778	0.13723552
3	0x3f20a71b	0.6275498
4	0xbc930ba1	-0.017949881
5	0x3e276356	0.16346487
6	0xbe301f4d	-0.1719944
7	0x3eedfd17	0.46482155
8	0x3f488115	0.78321964
9	0xbed308fb	-0.4121779
10	0x3f03cfaf	0.51488775
11	0x3e2e8720	0.17043734
12	0x3f18063f	0.5938453
13	0x3e824e74	0.2545048
14	0x3ed7c501	0.4214249
15	0xbded9485	-0.116005935
16	0x3ef47425	0.4774486
17	0x3e5e394e	0.21701548

model.first_conv.conv.0.bias f4 [6]
0	0xbd929c80	-0.07158756
1	0x3ea24592	0.31693703
2	0xbd3c19b4	-0.04592295
3	0xbe3ccb8d	-0.18437023
4	0xbdbb1c6d	-0.09136281
5	0x3f038039	0.5136753

model.first_conv.conv.2.weight f4 [6, 1, 3, 3]
0	0xbef7225a	-0.48268396
1	0xbe911210	-0.28334093
2	0xbeb5ba5a	-0.35493737
3	0xbec88591	-0.39164403
4	0x3e0c7aab	0.13718669
5	0xbee03887	-0.43793127
6	0x3d8976a6	0.067120835
7	0xbee26853	-0.44220218
8	0x3d6a1157	0.057145443
9	0xbe308c0a	-0.1724092
10	0xbe9690d0	-0.29407358
11	0xbd25d59f	-0.040486928
12	0xbe2d3683	-0.16915326
13	0x3dc2083a	0.09474225
14	0xbe3dc479	-0.1853198
15	0xbeaa082a	-0.33209354
16	0xbde9aa07	-0.11409383
17	0xbe9f2dd2	-0.31089646
18	0x3eb92668	0.36162114
19	0x3f01100c	0.5041511
20	0x3ee21362	0.44155413
21	0x3dbb98b6	0.09159987
22	0x3edf313b	0.43592247
23	0x3e9fb2b4	0.31191027
24	0x3ed137df	0.4086294
25	0x3d1b02b5	0.03784438
26	0xbd84db52	-0.064871445
27	0xbe83fcca	-0.257788
28	0xbedcfbb1	-0.43160775
29	0x3ddaaa50	0.10677016
30	0x3e0992f5	0.13434966
31	0x3e223519	0.15840568
32	0x3dcca7cf	0.099929444
33	0x3d211132	0.03932304
34	0x3e9965e7	0.29960558
35	0xbe57ace4	-0.21062046
36	0xbe486aab	-0.1957194
37	0xbeba6de8	-0.36411977
38	0xbde1c289	-0.11023433
39	0xbe8ddcc6	-0.277075
40	0x3d429595	0.047505934
41	0xbe6a7547	-0.228963
42	0x3d668d50	0.05628711
43	0xbeb2fa46	-0.34956568
44	0xbed209d2	-0.41023117
45	0xbea6190f	-0.32440993
46	0x3e123859	0.14279307
47	0xbd31049e	-0.043217294
48	0x3e51cff7	0.20489489
49	0xbed149e4	-0.40876687
50	0xbee977a0	-0.4559908
51	0xbeb5ba8a	-0.3549388
52	0xbeb07121	-0.3446131
53	0x3d09bd5b	0.03362785

model.first_conv.conv.2.bias f4 [6]
0	0x3ea32bc2	0.31869322
1	0x3da04aee	0.07826792
2	0xbdb4ce64	-0.088284284
3	0xbf0d6256	-0.55228174
4	0xbd137192	-0.03599698
5	0xbe72f6f5	-0.23727019

model.first_conv.conv.3.fc.0.weight f4 [6, 6, 1, 1]
0	0x3e9f2889	0.31085613
1	0xbe4896d4	-0.19588786
2	0x3eb34bf9	0.350189
3	0xbec1296a	-0.3772691
4	0xbe88b6a8	-0.26701856
5	0x3db20e1c	0.086940974
6	0x3dbe47c9	0.09291036
7	0xbe51def2	-0.20495203
8	0x3e5a5636	0.2132195
9	0x3e74e8e2	0.23916963
10	0xbec6cdc5	-0.38828865
11	0xbeb27093	-0.34851512
12	0x3f04cadc	0.5187204
13	0xbe0027a5	-0.12515123
14	0xbe8ebe8e	-0.27879757
15	0xbf31acd3	-0.69404334
16	0xbdd31257	-0.103062324
17	0xbe27ecca	-0.16398922
18	0xbe26d63e	-0.16292664
19	0xbec0dbf6	-0.37667817
20	0x3da52ce7	0.08065205
21	0xbe4b4166	-0.19849166
22	0xbee81ef9	-0.4533613
23	0xbe92f1bf	-0.28700063
24	0xbeea1aa1	-0.4572344
25	0xbe836003	-0.2565919
26	0x3f06a5b1	0.52596575
27	0x3d6b84b0	0.057499588
28	0x3db6a2c7	0.08917766
29	0xbebca4f6	-0.36844605
30	0xbeb47227	-0.3524334
31	0xbe576883	-0.21035962
32	0x3cbe653b	0.02324163
33	0xbea9af5f	-0.3314161
34	0xbe756adb	-0.23966543
35	0xbea3292c	-0.3186735

model.first_conv.conv.3.fc.0.bias f4 [6]
0	0x3c9e12ef	0.019296138
1	0x3a4f9d14	0.000791983
2	0x3e84e47f	0.2595558
3	0xbe691aa0	-0.22764063
4	0xbe98fffa	-0.29882795
5	0xbe2764a3	-0.16346984

model.first_conv.conv.3.fc.2.weight f4 [6, 6, 1, 1]
0	0xbe8dc24b	-0.27687296
1	0xbef4792a	-0.4774869
2	0x3ebff455	0.37491098
3	0xbe590418	-0.21192968
4	0x3ea0473f	0.31304356
5	0x3c40b4be	0.011761842
6	0xbee23bc4	-0.44186223
7	0x3e273aee	0.16331074
8	0xbe0583a9	-0.13038506
9	0xbe8b43b4	-0.2720009
10	0xbeb9d8a7	-0.36298105
11	0xbf03f41f	-0.51544374
12	0x3e51fd3a	0.20506755
13	0xbd0b49bc	-0.034005865
14	0x3ee9ef4f	0.4569039
15	0xbe8a4e3e	-0.2701282
16	0x3e539cdf	0.2066531
17	0xbe7effb7	-0.24902235
18	0x3d61baf4	0.055109933
19	0x3e8c8269	0.27443245
20	0xbdbb93bd	-0.09159038
21	0x3efc99d1	0.49336103
22	0x3f22df11	0.6362162
23	0xbe22d09a	-0.15899888
24	0x3d77368d	0.060354758
25	0xbe850198	-0.25977778
26	0xbdb5ed8f	-0.08883201
27	0xbec181e0	-0.377944
28	0x3ebbf8d4	0.36713278
29	0xbebcd254	-0.36879218
30	0xbd9c3040	-0.076263905
31	0xbe02914f	-0.12750743
32	0x3e8f837d	0.28030005
33	0xbef96f31	-0.48717645
34	0x3d0bf0b0	0.034165084
35	0xbe3926f2	-0.18081263

model.first_conv.conv.3.fc.2.bias f4 [6]
0	0x3e56e78e	0.20986769
1	0xbef94f39	-0.48693255
2	0x3ecc5ba3	0.39913663
3	0xbeae0944	-0.33991444
4	0xbeb60400	-0.35549927
5	0x3e070d3a	0.1318864

model.first_conv.conv.5.weight f4 [3, 6, 1, 1]
0	0xbd214808	-0.039375335
1	0xbd35e837	-0.04441091
2	0x3eac81b7	0.33692715
3	0x3e4331b9	0.19061936
4	0x3ea42067	0.3205597
5	0xbe307f50	-0.17236066
6	0xbed63305	-0.418358
7	0xbdde4452	-0.10852875
8	0x3c6ca925	0.014444624
9	0xbec2fd49	-0.38083866
10	0x3ede724b	0.43446574
11	0xbecf7a26	-0.4052288
12	0xbe68fd43	-0.22752862
13	0x3ecd1521	0.40055183
14	0x3f0591f3	0.52175826
15	0xbf3a0dbb	-0.726772
16	0x3ed5b60a	0.41740447
17	0x3d9e81fb	0.077396356

model.first_conv.conv.5.bias f4 [3]
0	0x3e9e59f2	0.30927998
1	0xbe6f93c7	-0.23396216
2	0xbe18c37f	-0.14918326

model.conv1.conv.0.weight f4 [24, 3, 1, 1]
0	0x3d820f04	0.0635052
1	0xbdc8a35d	-0.09796784
2	0xbe30326c	-0.17206734
3	0x3ebe9804	0.37225354
4	0x3f47b1f0	0.78005886
5	0xbd9ca952	-0.07649483
6	0xbe466cd7	-0.19377457
7	0xbe023423	-0.12715201
8	0xbe146d9a	-0.14494935
9	0x3ea37a1b	0.31929097
10	0x3de89f52	0.11358513
11	0xbefca974	-0.49348032
12	0xbe36bf3e	-0.1784639
13	0x3f4b8e74	0.7951424
14	0x3e82456e	0.25443596
15	0x3dcb826e	0.09936987
16	0xbedf4b29	-0.4361203
17	0xbe9bf9eb	-0.3046411
18	0xbf0c2fd7	-0.547605
19	0xbe1aabbd	-0.15104575
20	0x3df047de	0.117324576
21	0x3eb49a45	0.35273948
22	0x3e847ea6	0.25877875
23	0xbf0686da	-0.5254952
24	0x3d885c11	0.06658185
25	0x3f053812	0.5203868
26	0x3f71583c	0.9427526
27	0x3d64819a	0.05578766
28	0xbe5f96ef	-0.2183492
29	0x3e5b3e5d	0.21410508
30	0xbe09a522	-0.134419
31	0xbe2f6232	-0.17127302
32	0x3eefef9f	0.46862504
33	0xbe0df8e3	-0.13864474
34	0xbe7cd991	-0.2469237
35	0xbf2b35f1	-0.66879183
36	0x3ecae544	0.3962804
37	0x3eeec062	0.4663115
38	0x3e865160	0.2623396
39	0xbedc94e5	-0.43082348
40	0xbf12ff5e	-0.5742091
41	0xbf0104b6	-0.50397813
42	0x3f04c729	0.51866394
43	0x3eaae5e9	0.33378533
44	0x3f1be31f	0.60893434
45	0x3ebd9370	0.37026548
46	0x3f10c081	0.5654374
47	0x3d655d12	0.055996962
48	0xbef6c609	-0.48197964
49	0xbf047d50	-0.5175371
50	0xbf1a8c93	-0.6037075
51	0x3e6871ae	0.22699615
52	0xbf2be6b6	-0.6714891
53	0xbe1b3e06	-0.15160379
54	0xbea8b2fc	-0.32949054
55	0xbdd9115d	-0.10599015
56	0xbeccc383	-0.39992914
57	0xbec16463	-0.377719
58	0x3e439faf	0.19103883
59	0xbe3528c9	-0.1769134
60	0x3ec6cd93	0.38828716
61	0xbe82c1b0	-0.25538397
62	0xbec9042b	-0.39260992
63	0xbb66490a	-0.003513875
64	0xbea8f8c3	-0.3300229
65	0xbe2eab27	-0.17057477
66	0xbf0b30d6	-0.5437139
67	0x3eb6a081	0.3566933
68	0xbecf7c6b	-0.4052461
69	0x3ed3d97d	0.41376868
70	0x3edb6871	0.4285312
71	0x3f04f40b	0.5193488

model.conv1.conv.0.bias f4 [24]
0	0xbee21209	-0.44154385
1	0x3ed59c29	0.41720703
2	0xbe879294	-0.26479018
3	0x3eb60cef	0.35556743
4	0x3f117655	0.56821185
5	0x3cf50e4a	0.02991404
6	0xbdb8865b	-0.09010001
7	0xbe121c92	-0.14268711
8	0xbe1bef58	-0.15228021
9	0x3e8a3f84	0.27001584
10	0xbf1c4659	-0.6104484
11	0x3f0004cf	0.5000734
12	0x3ee1ef63	0.4412795
13	0x3f0607b2	0.5235549
14	0x3a312ec9	0.00067589857
15	0xbed43481	-0.41446307
16	0x3e054c3e	0.13017365
17	0x3ec1a4c5	0.37821022
18	0xbf12dff8	-0.57373
19	0xbe042038	-0.12902915
20	0xbe9fb937	-0.31195995
21	0x3d1753a0	0.036944985
22	0xbe8fdd04	-0.2809831
23	0xbdc36cb9	-0.095422216

model.conv1.conv.2.weight f4 [24, 1, 3, 3]
0	0xbdd9ae8f	-0.106289975
1	0xbea416c4	-0.3204862
2	0x3e8bc73f	0.2730045
3	0x3e8e902a	0.27844363
4	0xbd66c9f4	-0.05634494
5	0xbd1e97ea	-0.038719095
6	0xbe07aecf	-0.13250278
7	0xbe99c742	-0.30034834
8	0xbea406cd	-0.3203644
9	0x3cfe8a49	0.031071799
10	0xbe831531	-0.25602105
11	0xbea5ec54	-0.32406867
12	0xbdc8ad92	-0.09798731
13	0xbe2bb763	-0.16769175
14	0xbe501a06	-0.20322427
15	0xbdab638e	-0.08368598
16	0xbe16fff9	-0.14746083
17	0xbe6bc1af	-0.23023103
18	0xbe295568	-0.16536486
19	0xbe864cdc	-0.26230514
20	0x3e9603c5	0.2929975
21	0xbe02697c	-0.12735552
22	0x3ddeb26c	0.10873875
23	0xbdbab402	-0.09116365
24	0x3d0db6ae	0.034598045
25	0x3eaa5062	0.33264452
26	0x3e37e5fd	0.17958827
27	0xbe0b26af	-0.13588975
28	0x3e85f5ec	0.26164186
29	0x3eee26e1	0.46514037
30	0x3e64b895	0.22336037
31	0x3eac0ff8	0.33605933
32	0x3eeca491	0.46219304
33	0x3dca3532	0.098734275
34	0x3e49f019	0.19720496
35	0xbda8d3e3	-0.08243539
36	0xbe37bc0b	-0.17942826
37	0x3e52bef2	0.20580652
38	0x3db477d3	0.08811917
39	0xbe8f5c2a	-0.28000003
40	0xbe8ebb19	-0.2787712
41	0xbe8f5127	-0.27991602
42	0xbeeef188	-0.4666865
43	0xbeb1061a	-0.34574968
44	0xbe5c5324	-0.2151609
45	0x3e3e4044	0.18579203
46	0x3d2c933d	0.042132605
47	0xbe9becf5	-0.3045422
48	0xbe94dd1e	-0.2907495
49	0x3e2b60b3	0.16736107
50	0xbe923c71	-0.28561738
51	0xbdc39b36	-0.095510885
52	0x3e0293ab	0.12751643
53	0xbe66e18c	-0.22546977
54	0xbcd173fc	-0.025568001
55	0xbcc21ed5	-0.023696342
56	0xbd96d1c4	-0.07364228
57	0xbe2936fa	-0.16524878
58	0xbe984cf6	-0.29746217
59	0xbe8a7095	-0.27039018
60	0xbe321694	-0.17391425
61	0x3ea5a073	0.32348976
62	0xbe236c39	-0.15959252
63	0xbe62dbf8	-0.22154224
64	0x3db2fdb3	0.087397955
65	0x3dc10306	0.09424405
66	0x3e3d02ec	0.18458146
67	0x3e84eb45	0.25960746
68	0x3e40438b	0.18775766
69	0xbeab111a	-0.33411485
70	0x3cf555b5	0.029948095
71	0x3e4b498c	0.19852275
72	0xbbbf5a55	-0.005839626
73	0xbe44e5b7	-0.19228254
74	0x3ebcf648	0.36906648
75	0xbdcbd2f1	-0.09952343
76	0xbe3c0f5e	-0.18365237
77	0xbe7a0958	-0.24417627
78	0x3da824e2	0.0821016
79	0x3e484bf4	0.19560224
80	0x3e2f96ad	0.17147322
81	0x3d8b45c2	0.068004146
82	0xbe843df2	-0.2582851
83	0xbe9f64b0	-0.31131506
84	0x3be73704	0.007056119
85	0x3e98632a	0.29763156
86	0x3e442fca	0.19158855
87	0xbe3daad5	-0.18522198
88	0xbd2a935c	-0.04164444
89	0xbe741708	-0.2383691
90	0xbde8fce0	-0.11376357
91	0x3dd0b51f	0.10190796
92	0x3e6c62f1	0.23084618
93	0x3eb18f78	0.3467977
94	0xbe757a01	-0.23972322
95	0x3e97274a	0.29522163
96	0xbe058ffc	-0.13043207
97	0x3e63ffcc	0.22265548
98	0x3ec3c5d7	0.38236877
99	0x3e31c2e4	0.17359501
100	0x3ee1d275	0.44105878
101	0xbde2ac00	-0.11067963
102	0x3ca8fdcd	0.020628834
103	0x3e9f8caf	0.3116202
104	0x3da71369	0.08157999
105	0x3ddd22a1	0.107976206
106	0x3c14ec66	0.009089565
107	0x3ed411a6	0.41419715
108	0x3dbce324	0.09223011
109	0x3df2473d	0.11829994
110	0xbe62fac5	-0.22165973
111	0xbe987c2a	-0.2978223
112	0x3da43ffc	0.080200166
113	0x3dbc7ca7	0.09203463
114	0xbe7cd0c9	-0.2468902
115	0xbdf4b89b	-0.11949273
116	0x3e101e9e	0.1407418
117	0x3c90c69f	0.017672835
118	0x3c999102	0.018745903
119	0xbe085c0b	-0.13316362
120	0xbe9297d7	-0.2863147
121	0xbe92a72e	-0.28643173
122	0xbe41754d	-0.18892403
123	0xbe36f455	-0.17866643
124	0x3dd490ed	0.10379205
125	0xbe1d6318	-0.15369833
126	0x3d192950	0.037392914
127	0x3ec3938a	0.381985
128	0x3e45d63f	0.1932001
129	0x3eb609f2	0.35554463
130	0xbe07401a	-0.13208047
131	0xbdbd91d2	-0.09256329
132	0x3ea800eb	0.328132
133	0xbdc162f1	-0.094427
134	0xbd91e36a	-0.07123454
135	0xbc2894e6	-0.010289406
136	0xbda07fc3	-0.078368686
137	0xbe795411	-0.24348475
138	0x3e198766	0.14993057
139	0x3e7d2546	0.2472125
140	0xbc0b2114	-0.008491773
141	0xbe68b2fd	-0.22724529
142	0xbee34e8f	-0.44395873
143	0xbe9af2b2	-0.30263287
144	0x3e5b5bb4	0.214217
145	0x3e9a6f41	0.30163005
146	0x3d8b84af	0.06812417
147	0x3b99e484	0.0046964306
148	0x3eac61bb	0.33668312
149	0xbe197b26	-0.14988384
150	0x3ea2e91f	0.31818482
151	0xbc16f030	-0.009212539
152	0x3db781f7	0.08960336
153	0x3d88215f	0.0664699
154	0x3e23b91b	0.15988581
155	0x3d07f97f	0.033196922
156	0x3ebbd3a8	0.36684918
157	0x3dd14781	0.102187164
158	0x3ec5d9eb	0.3864282
159	0x3eebc10b	0.46045718
160	0xbd12f992	-0.03588254
161	0xbdce6b1b	-0.100790225
162	0x3e8a6c57	0.27035782
163	0x3e8a1dfb	0.26975998
164	0xbe81cb45	-0.25350395
165	0xbca251fc	-0.019814484
166	0xbea2b61a	-0.31779557
167	0xbe8a3837	-0.26996014
168	0x3d7c77d7	0.061637726
169	0x3db9046c	0.090340465
170	0x3d826b9c	0.06368181
171	0xbddadea9	-0.10687
172	0x3e9d78bf	0.30756184
173	0x3d2f5cc5	0.04281308
174	0xbe5037ca	-0.20333782
175	0xbc394642	-0.011308255
176	0x3da7d040	0.081940174
177	0x3dc6ff94	0.097167164
178	0xbe78ae58	-0.24285257
179	0x3de3ab09	0.11116607
180	0xbe467271	-0.19379593
181	0xbe988d94	-0.29795516
182	0xbe4a7825	-0.19772394
183	0x3e991b29	0.29903534
184	0x3e86f303	0.26357278
185	0x3e90c9fd	0.28279105
186	0x3e2da79c	0.16958469
187	0x3e65a3b5	0.2242573
188	0xbd88254a	-0.06647737
189	0xbe4f3707	-0.20235835
190	0x3e2ef7f0	0.17086768
191	0xbe4b86ac	-0.19875592
192	0xbe71e1b5	-0.23621257
193	0xbdc3cd1d	-0.09560607
194	0x3d47b813	0.04875953
195	0x3e095666	0.13411865
196	0xbe162da5	-0.1466585
197	0xbe7adc22	-0.24498037
198	0x3d2eec7e	0.042706005
199	0xbe51b8f9	-0.20480718
200	0xbe617144	-0.22015864
201	0x3e2dd1a0	0.16974497
202	0xbd88d407	-0.06681066
203	0x3e991461	0.2989836
204	0x3ea62a05	0.32453933
205	0x3dbd993d	0.092577435
206	0x3de6d693	0.112713955
207	0x3e81d921	0.2536097
208	0x3de58b33	0.11208191
209	0x3df38ef3	0.118925
210	0x3e1655af	0.14681123
211	0x3e4f3b57	0.2023748
212	0x3eda30fc	0.42615497
213	0x3deac8e0	0.11464095
214	0xbb305154	-0.0026903944
215	0x3dc6df39	0.09710545

model.conv1.conv.2.bias f4 [24]
0	0xbe16aa0f	-0.1471331
1	0xbb88ab85	-0.0041708373
2	0x3e4c7084	0.19964796
3	0x3e8f1a95	0.27949968
4	0x3dff2100	0.12457466
5	0xbe82980e	-0.25506634
6	0xbe3f9bac	-0.18711728
7	0xbd8477de	-0.06468175
8	0x3d511837	0.051048484
9	0x3d01822a	0.031618275
10	0xbeb01d87	-0.34397528
11	0x3e2c1d06	0.16807947
12	0xbe84f480	-0.2596779
13	0xbe5cc156	-0.21558127
14	0xbe03e0db	-0.12878744
15	0x3eb8c276	0.36085862
16	0xbea5ce82	-0.32384115
17	0x3ea20553	0.31644687
18	0xbd05a1ca	-0.032624997
19	0xbc559cb1	-0.013037846
20	0x3e82f5bc	0.25578105
21	0xbda089ab	-0.07838758
22	0x3e725f03	0.23669057
23	0x3e388904	0.18021017

model.conv1.conv.5.weight f4 [16, 24, 1, 1]
0	0xbe33485a	-0.17508069
1	0x3dae79f0	0.085193515
2	0xbbe6bccf	-0.0070415507
3	0xbd8f79c2	-0.07005645
4	0xba530968	-0.0008050413
5	0x3d83123f	0.063999645
6	0xbdc38bdc	-0.095481604
7	0xbd046146	-0.03231933
8	0x3ef27b85	0.47359863
9	0x3df4109b	0.1191723
10	0x3e22e2a5	0.1590677
11	0xbe99b369	-0.30019692
12	0x3be510d2	0.0069905305
13	0xbdb9b19c	-0.090670794
14	0x3e1e8938	0.15482032
15	0xbe3d3a86	-0.18479356
16	0xbaef6cf6	-0.0018266726
17	0xbe0eba45	-0.13938244
18	0x3cc1457e	0.023592707
19	0x3e40e7d9	0.18838443
20	0xbcc470b6	-0.023979526
21	0x3df205dc	0.11817524
22	0x3dea36d3	0.11436238
23	0x3e5ae001	0.21374513
24	0xbd2408ed	-0.040047575
25	0xbc83159d	-0.016001517
26	0x3da34b63	0.07973363
27	0xbdbef5a3	-0.09324195
28	0x3e2ed7fe	0.17074582
29	0xbc247b5b	-0.010039176
30	0xbdd69221	-0.104770906
31	0x3de14165	0.10998801
32	0x3dd000b5	0.10156385
33	0x3e27e1ba	0.16394702
34	0x3db6fd08	0.08934981
35	0x3e0c9846	0.13729963
36	0x3e865689	0.26237896
37	0x3cd92fe3	0.026512092
38	0xbf06f541	-0.5271798
39	0xbe1f9bd4	-0.15586787
40	0xbdb331d8	-0.08749741
41	0xbe5d6aec	-0.21622819
42	0xbda6084c	-0.08107051
43	0xbe29e853	-0.16592531
44	0xbe51d800	-0.20492554
45	0xbdd944f3	-0.10608854
46	0xbe5f6c68	-0.21818697
47	0xbe94f55a	-0.29093438
48	0x3dcd26bb	0.10017153
49	0x3e5ed49f	0.21760796
50	0xbdca8ff1	-0.09890736
51	0xbde6dbad	-0.112723686
52	0x3e446054	0.19177371
53	0xbd8a121a	-0.06741734
54	0xbd855cf1	-0.06511868
55	0x3e0f242b	0.1397864
56	0xbc9381c8	-0.01800622
57	0x3d838620	0.06422067
58	0x3e94ae95	0.29039446
59	0x3d2bf15d	0.04197823
60	0x3e02386c	0.12716836
61	0xbdf14ccc	-0.11782226
62	0xbdc4db14	-0.09612098
63	0xbd61ebd9	-0.055156562
64	0x3dbc2064	0.091858655
65	0x3d0c1f2e	0.034209423
66	0x3e3783aa	0.1792132
67	0xbe16cb03	-0.1472588
68	0xbd00139f	-0.031268712
69	0xbdd31669	-0.10307009
70	0xbe4afda4	-0.19823319
71	0xbd8096fa	-0.062787965
72	0xbe4a990f	-0.1978495
73	0x3e164d6b	0.1467797
74	0x3dc20238	0.094730794
75	0x3d051cdd	0.03249823
76	0x3de56f7e	0.11202906
77	0xbe613735	-0.21993716
78	0xbdcadafb	-0.099050485
79	0xbd528212	-0.051393576
80	0xbece3b5a	-0.40279657
81	0xbe14d366	-0.14533767
82	0xbe23727f	-0.15961646
83	0x3e8ce45e	0.2751798
84	0x3e2e586a	0.17025915
85	0x3da47188	0.08029467
86	0xbd8c57a1	-0.068526514
87	0xbd3c1dd1	-0.045926873
88	0x3e19c305	0.150158
89	0x3e495cd8	0.19664323
90	0xbb357756	-0.0027689538
91	0x3c90fa22	0.017697398
92	0xbdc55aa5	-0.0963643
93	0xbdac263b	-0.084057294
94	0x3e878e91	0.26475957
95	0xbdc10d0a	-0.09426315
96	0xbc9386c6	-0.0180086
97	0xbe29e810	-0.16592431
98	0xbd8a7361	-0.06760288
99	0x3e061fc3	0.13098054
100	0xbdd09a0e	-0.101856336
101	0xbd28014c	-0.04101686
102	0x3d988c9b	0.07448693
103	0xbe4e6b15	-0.20158036
104	0xbe5617ff	-0.20907591
105	0xbdf78851	-0.12086547
106	0xbe49b3a6	-0.19697437
107	0x3e56087a	0.20901671
108	0x3e2553bd	0.16145225
109	0xbdf45721	-0.11930681
110	0xbdb467bb	-0.088088475
111	0xbdeca3a6	-0.11554651
112	0xbdf43b56	-0.1192538
113	0xbd8bc434	-0.06824532
114	0xbd30af98	-0.04313621
115	0x3d1f7e11	0.038938586
116	0xbe16fbe0	-0.1474452
117	0x3e25f9eb	0.16208617
118	0x3e30d3cd	0.17268296
119	0xbe8f036b	-0.27932295
120	0xbdb9046b	-0.09034046
121	0xb98fb04f	-0.00027406446
122	0xbd043d3f	-0.03228497
123	0xbd5e895f	-0.054330226
124	0xbe2fdc44	-0.17173868
125	0x3e3a6a4d	0.18204613
126	0xbdd9c173	-0.10632601
127	0x3e32a1fd	0.17444606
128	0x3f36cb3a	0.7140385
129	0x3d00a834	0.03141041
130	0x3e21eef9	0.15813817
131	0xbda0ce2a	-0.07851823
132	0xbe07f46c	-0.13276833
133	0x3cb5bada	0.022183824
134	0x3e353b67	0.17698441
135	0xbe3ef09b	-0.18646471
136	0x3d72ee9e	0.059309594
137	0xbe494da5	-0.19658525
138	0x3dcbf256	0.09958331
139	0x3d9b35d5	0.07578627
140	0x3c97350c	0.018457912
141	0x3df4eca4	0.11959198
142	0x3c378af7	0.011202565
143	0x3e2dbc1f	0.16966294
144	0xbdecbdbb	-0.11559626
145	0x3c9de3c0	0.019273639
146	0xbd134179	-0.03595111
147	0x3d3b8988	0.045785457
148	0x3e267f01	0.16259386
149	0xbdbe9555	-0.093058266
150	0x3e556a07	0.20841227
151	0xbc532cba	-0.012889082
152	0x3c39bd73	0.011336672
153	0xbdecc8db	-0.11561748
154	0x3d9a96f3	0.075483225
155	0x3d3af709	0.045645747
156	0x3dd8773f	0.105696194
157	0xbd96ad1c	-0.07357237
158	0xbe2783b4	-0.16358835
159	0xbe472964	-0.19449383
160	0x3e82a046	0.25512904
161	0xbea1c222	-0.31593424
162	0xbd2d134e	-0.04225474
163	0xbe2ec815	-0.17068513
164	0xbe53dd3b	-0.20689861
165	0x3d9e19ae	0.07719742
166	0x3d90f394	0.07077709
167	0xbde7f508	-0.11326033
168	0x3e55cfe6	0.20880088
169	0x3ceafa93	0.028683936
170	0x3d8a4eb5	0.067532934
171	0x3d2b74a2	0.041859277
172	0x3e154fa5	0.14581163
173	0xbdcd951f	-0.10038208
174	0x3e49d309	0.1970941
175	0x3e01abf4	0.12663251
176	0x3e240893	0.16018896
177	0xbdc506a2	-0.09620406
178	0xbe415b2f	-0.1888244
179	0xbd60f35d	-0.05491959
180	0xbe2846a4	-0.16433197
181	0x3e015555	0.12630208
182	0x3db278f8	0.08714479
183	0xbe7877be	-0.24264428
184	0x3d99e584	0.0751448
185	0xbdeefe01	-0.11669541
186	0x3db515a1	0.08842016
187	0x3df178b0	0.117905974
188	0xbe808a86	-0.25105685
189	0x3e42f346	0.19038114
190	0x3dfaa46b	0.122383915
191	0x3e1d116d	0.15338679
192	0xbe377256	-0.1791471
193	0xbded245c	-0.115792006
194	0xbded3386	-0.11582093
195	0xbe40eea7	-0.18841039
196	0x3d883583	0.066508316
197	0x3dbd9f0e	0.09258853
198	0x3e2e517f	0.17023276
199	0xbd9b7653	-0.07590928
200	0x3eee4d10	0.4654317
201	0x3d8b782f	0.068100326
202	0xbdbf78b2	-0.09349193
203	0xbea5b34e	-0.3236336
204	0xbdd94092	-0.10608019
205	0x3e4a6e42	0.19768623
206	0xbe506f79	-0.20355023
207	0xbe84c8b2	-0.25934368
208	0x3e0725e8	0.13198054
209	0xbbba0025	-0.0056762868
210	0x3e282b35	0.16422732
211	0xbe1e4da9	-0.15459312
212	0xbe4fecd4	-0.20305187
213	0x3df23f8f	0.11828529
214	0x3dfc5575	0.12320987
215	0x3e5ec9d1	0.21756674
216	0x3d607bad	0.054805446
217	0x3da81902	0.08207895
218	0x3df5567b	0.119793855
219	0xbe8bcb11	-0.27303365
220	0xbda95cee	-0.08269678
221	0x3e2da44c	0.16957206
222	0xbdeb3cd1	-0.11486209
223	0xbdc4d64d	-0.09611187
224	0x3dc3be1f	0.09557747
225	0x3dbcfc52	0.09227814
226	0x3dc7d2a2	0.09756972
227	0xbe47f722	-0.19527867
228	0x3cbf103c	0.02332317
229	0x3e6b2570	0.229635
230	0xbe0626f4	-0.13100797
231	0xbd9de7e3	-0.077102445
232	0x3e032750	0.12807965
233	0xbe8c770f	-0.27434584
234	0x3e55344e	0.20820734
235	0xbdb43c05	-0.0880051
236	0xbdf593a7	-0.11991053
237	0xbd304c26	-0.04304137
238	0xbe513330	-0.20429683
239	0xbe116ebc	-0.14202398
240	0x3e03b62d	0.12862463
241	0x3dd40824	0.10353115
242	0xbe386650	-0.18007779
243	0xbd46968f	-0.048483428
244	0x3e80ecc1	0.2518063
245	0x3db18327	0.086675934
246	0x3dc127ad	0.09431396
247	0xbddcd4ac	-0.107827514
248	0xbec7ed4a	-0.39048225
249	0xbca94121	-0.020660939
250	0xbe00c80d	-0.12576313
251	0xbd50b33f	-0.050952192
252	0x3d155c15	0.03646477
253	0xbc31a9f8	-0.010843746
254	0xbb3065b4	-0.0026916089
255	0x3d8dcf5c	0.06924316

model.conv1.conv.5.bias f4 [16]
0	0xbe337b5e	-0.1752753
1	0xbe28b63c	-0.16475767
2	0x3e1464ec	0.14491624
3	0x3e840002	0.25781256
4	0x3e261622	0.1621938
5	0x3e5f49e5	0.21805532
6	0xbe5dbb91	-0.21653582
7	0xbdd2ea99	-0.10298652
8	0xba1b4f5f	-0.0005924608
9	0xbe0287fe	-0.1274719
10	0xbc4c2d42	-0.012461962
11	0xbe6b2788	-0.22964299
12	0x3de4d861	0.111740835
13	0xbe000644	-0.1250239
14	0xbd3a66c4	-0.04550816
15	0x3e9a5308	0.30141473

model.conv2.conv.0.weight f4 [24, 16, 1, 1]
0	0xbe05ae61	-0.13054802
1	0xbd620852	-0.055183716
2	0x3e3a04cb	0.18165891
3	0xbd29e598	-0.041478723
4	0x3c96637f	0.01835799
5	0x3e553e3b	0.2082452
6	0xbdcefd35	-0.10106889
7	0xbe6509ef	-0.2236707
8	0xbe3a0cf6	-0.18169007
9	0xbda545ee	-0.08069979
10	0xbdd1f9db	-0.10252734
11	0xbe2d517d	-0.16925617
12	0x3e2e4de7	0.17021905
13	0x3d5c76ea	0.053824343
14	0xbddd9e5d	-0.10821221
15	0xbe2877b0	-0.16451907
16	0xbddc8e8a	-0.10769375
17	0xbdc4e323	-0.096136354
18	0xbd9fa27d	-0.07794664
19	0xbe50449a	-0.2033867
20	0x3d7f4818	0.062324613
21	0xbe5fa97e	-0.21842
22	0xbe4d51fd	-0.20050807
23	0xbe5f755e	-0.21822116
24	0x3e266023	0.16247611
25	0xbe1e3cb1	-0.1545284
26	0xbdb30df2	-0.08742894
27	0x3e197144	0.14984614
28	0x3e3891e8	0.18024409
29	0x3e2c0de3	0.16802172
30	0xbe7c55e3	-0.24642138
31	0xbe1f237f	-0.15540884
32	0xbe6b39d8	-0.22971284
33	0x3e5374bb	0.20649998
34	0x3df4d946	0.11955504
35	0xbd9201bc	-0.07129237
36	0x3ddcfaa1	0.10789991
37	0xbe91f2a0	-0.2850542
38	0xbd8b4601	-0.068004616
39	0xbe4501fe	-0.19239041
40	0x3dd553e6	0.10416393
41	0x3b88c5c2	0.004173965
42	0x3a018af7	0.0004941667
43	0xbd9affc7	-0.07568317
44	0x3d688cda	0.05677495
45	0x3e32493c	0.17410749
46	0x3d025b27	0.03182521
47	0x3e14442a	0.14479128
48	0x3d56b101	0.052414898
49	0x3e4f7311	0.20258738
50	0xbdcc644f	-0.0998007
51	0xbe5c5bcb	-0.21519391
52	0x3d5f7844	0.054558054
53	0x3e8d0b11	0.27547505
54	0x3e74566c	0.23861092
55	0x3e446dff	0.19182585
56	0x3d0647ab	0.03278319
57	0x3e2486f0	0.160671
58	0x3e29add3	0.16570215
59	0xbde07c2f	-0.10961186
60	0xbe38870c	-0.18020266
61	0xbe5bf5e5	-0.2148052
62	0x3de3d561	0.11124683
63	0x3d07be55	0.0331405
64	0x3a039542	0.00050194946
65	0xbe0435af	-0.12911104
66	0x3e22fc82	0.15916637
67	0xbc90208c	-0.017593645
68	0xbe9f84f7	-0.31156132
69	0x3eabdd1c	0.3356713
70	0xbe5888bd	-0.21145912
71	0x3c8df0f2	0.017326806
72	0x3e12cffb	0.14337151
73	0xbddb46b6	-0.107068464
74	0xbeb7eff3	-0.35925254
75	0x3decb7c0	0.11558485
76	0xbe023d2b	-0.12718646
77	0xbe7f113d	-0.2490892
78	0x3e230762	0.15920785
79	0xbd533490	-0.0515638
80	0xbe800aa8	-0.2500813
81	0xbd6e1984	-0.058129802
82	0xbaf860c5	-0.0018949738
83	0xb7d05a57	-2.48376e-05
84	0x3d1397b0	0.036033332
85	0xbd2e9811	-0.04262549
86	0xbe2f235a	-0.1710333
87	0xbe9230a9	-0.2855275
88	0xbde8f05d	-0.11373971
89	0xbc929e0c	-0.017897628
90	0x3e533bec	0.20628327
91	0xbe90c43f	-0.28274724
92	0x3e551aef	0.20811056
93	0x3e688353	0.22706346
94	0x3dc42b8c	0.095786184
95	0xbe32e573	-0.1747034
96	0x3dfdc863	0.12391736
97	0xbefac6c3	-0.48979768
98	0xbecc798a	-0.39936477
99	0xbc7ae61e	-0.015313653
100	0xbe70d40d	-0.23518391
101	0x3e94792c	0.28998697
102	0xbea5848e	-0.32327694
103	0x3e89ec6c	0.26938188
104	0xbec7a914	-0.38996184
105	0x3c43261f	0.011910944
106	0xbe1c4377	-0.15260111
107	0x3df66e00	0.120326996
108	0xbed27df0	-0.41111708
109	0xbea147eb	-0.31500182
110	0x3e7e0094	0.24804908
111	0x3de73839	0.112900205
112	0xbe06a9c6	-0.13150701
113	0x3bf259eb	0.007395973
114	0xbcecc1d1	-0.028901013
115	0xbe509d5a	-0.20372525
116	0x3e490212	0.19629696
117	0x3b18530b	0.0023242857
118	0x3d66260f	0.05618864
119	0xbdc96c7a	-0.098351434
120	0xbde8ac0b	-0.113609396
121	0x3d38fc33	0.04516239
122	0x3dbd9fb4	0.092589766
123	0x3d63917e	0.055558674
124	0xbdf98c28	-0.12184936
125	0x3e7aa133	0.24475555
126	0xbd1bc9d2	-0.038034268
127	0xbe2078e4	-0.15671116
128	0xbe4425fd	-0.19155116
129	0x3e817bf2	0.25289875
130	0x3d3b2a64	0.045694724
131	0x3cac7552	0.021052036
132	0x3c18c515	0.009324332
133	0xbe3f7241	-0.18695928
134	0xbe67fcd9	-0.22655047
135	0xbe83c7fe	-0.2573852
136	0x3daa489e	0.08314632
137	0x3e3b16d6	0.1827043
138	0x3ea7e9c1	0.32795528
139	0xbe777ccf	-0.24168704
140	0x3e448960	0.1919303
141	0xbdc6a9aa	-0.097003296
142	0x3da0e478	0.07856077
143	0x3e61946f	0.22029279
144	0x3e439fd7	0.19103943
145	0x3e3d008b	0.18457238
146	0x3e20d531	0.15706326
147	0x3bcb6aae	0.0062077856
148	0x3df09b8a	0.11748417
149	0xbdbbc975	-0.09169284
150	0x3de250b0	0.11050546
151	0xbda70a9d	-0.08156321
152	0xbb9bb642	-0.0047519514
153	0xbe5dc582	-0.21657375
154	0xbd83798b	-0.06419667
155	0xbe08a1ea	-0.13343015
156	0xbda839e1	-0.082141645
157	0xbe2284fb	-0.1587104
158	0xbe67b16b	-0.22626273
159	0x3c8928b9	0.01674305
160	0x3e257d5c	0.16161102
161	0x3e6cdca2	0.2313104
162	0x3e160173	0.1464899
163	0xbe04a319	-0.12952842
164	0xbe7c088c	-0.24612635
165	0x3dc07fbf	0.09399366
166	0x3e10b92e	0.1413314
167	0xbe5c7c27	-0.21531735
168	0x3db9e2ed	0.09076486
169	0x3e59e459	0.21278514
170	0x3c7e6b52	0.015528517
171	0xbe1ae128	-0.15124953
172	0x3e532a6f	0.20621656
173	0x3ddac89c	0.106827945
174	0x3e292e90	0.16521668
175	0xbe2d2814	-0.1690982
176	0x3ef2c286	0.47414035
177	0xbec7c950	-0.39020777
178	0xbcdfb0ab	-0.027305922
179	0xbe969711	-0.2941213
180	0xbde497f0	-0.11161792
181	0x3eb393a9	0.35073593
182	0xbe3621af	-0.17786287
183	0x3e69791e	0.22800109
184	0x3f2e3780	0.68053436
185	0xbea637bc	-0.32464397
186	0xbf0f435c	-0.5596216
187	0x3e37cf59	0.1795019
188	0x3cb60f67	0.022224141
189	0xbee222d1	-0.44167188
190	0x3eab7b9c	0.33492744
191	0x3e2a5aa5	0.1663614
192	0x3e3ce826	0.18447933
193	0x3e3052c8	0.17219079
194	0x3e2c8a0d	0.16849537
195	0xbe2ca334	-0.16859132
196	0xbe479acb	-0.19492643
197	0x3bec2741	0.007206828
198	0xbe000ffc	-0.12506098
199	0x3e17a663	0.14809565
200	0xbe9f075c	-0.31060302
201	0x3e0e1ce8	0.13878214
202	0x3e888089	0.26660565
203	0x3e2b7f94	0.16747886
204	0x3d8cf398	0.06882399
205	0xbe93939e	-0.2882356
206	0x3e830ee3	0.25597295
207	0xbcd17c02	-0.025571827
208	0xbecaa1f4	-0.39576685
209	0x3e2d0603	0.16896825
210	0xbd2d5f69	-0.04232732
211	0x3dfb3703	0.12266352
212	0x3ee4c740	0.44683266
213	0xbe80eb76	-0.25179642
214	0xbe64be0a	-0.22338119
215	0xbdb23629	-0.087017365
216	0xbe5aaab1	-0.21354176
217	0xbd8067a2	-0.062697664
218	0xbe206437	-0.15663229
219	0xbe0ae46c	-0.13563699
220	0x3cf0852c	0.029360376
221	0x3ce5055b	0.027956655
222	0xbedb7f0d	-0.4287037
223	0x3e7a5dac	0.24449795
224	0x3d27203a	0.040802218
225	0xbe59de75	-0.21276267
226	0x3e5fb1f8	0.21845233
227	0x3d953213	0.072849415
228	0x3d148310	0.036257803
229	0xbe1d7eff	-0.15380476
230	0x3d12511d	0.035721887
231	0x3e6f53d9	0.23371829
232	0x3e719fd8	0.23596132
233	0xbe511694	-0.20418769
234	0x3e5d9420	0.21638536
235	0x3be11079	0.006868419
236	0x3e12fb15	0.14353593
237	0x3e56276e	0.20913479
238	0x3e69152c	0.22761983
239	0xbe405ba8	-0.18784964
240	0x3e8683b8	0.26272368
241	0xbe229020	-0.15875292
242	0x3c6aa2d3	0.014321047
243	0xbea5650d	-0.32303658
244	0xbd7908e9	-0.060799513
245	0xbb81ff05	-0.0039671683
246	0x3c9173da	0.017755438
247	0x3cd1d616	0.02561478
248	0x3dc80006	0.097656295
249	0x3e9039e6	0.28169173
250	0x3e0b81a4	0.13623673
251	0x3e420d52	0.18950394
252	0x3d358114	0.04431255
253	0x3e729388	0.23689091
254	0xbca65370	-0.020303458
255	0xbe93c406	-0.28860492

model.conv2.conv.0.bias f4 [24]
0	0x3c81c1cc	0.01583948
1	0x3daba354	0.08380762
2	0x3e994846	0.29937953
3	0x3d3be672	0.045874067
4	0x3d839f17	0.06426828
5	0x3e8614b2	0.26187664
6	0xbd4af5fe	-0.049551003
7	0xbd9ff4b1	-0.07810343
8	0x3d5aaa49	0.053385053
9	0xbe434c4e	-0.19072077
10	0x3cda48c2	0.026646022
11	0x3dc39ec0	0.095517635
12	0x3bfa1949	0.0076324088
13	0x3e0b33b7	0.13593946
14	0x3d232b69	0.03983632
15	0xbe8d67d1	-0.27618268
16	0xbe99cbbf	-0.30038258
17	0x3e89cc92	0.26913887
18	0x3ec191fb	0.37806687
19	0xbe7a08b2	-0.2441738
20	0x3e223e20	0.15844011
21	0xbdd7ac79	-0.105309434
22	0x3d7356de	0.059409015
23	0x3e93807e	0.2880897

model.conv2.conv.2.weight f4 [24, 1, 3, 3]
0	0x3e798438	0.24366844
1	0xbe8e6b84	-0.27816403
2	0x3e79e87a	0.24405089
3	0x3e1125ae	0.1417453
4	0xbd85093d	-0.06495903
5	0x3eaa44d7	0.33255646
6	0xbe013fe0	-0.12622023
7	0xbde371f5	-0.1110572
8	0xbdfe269e	-0.124097094
9	0x3cfd116c	0.030892096
10	0x3dbd8e06	0.092556044
11	0x3a896f45	0.0010485431
12	0xbe4683b3	-0.19386177
13	0xbe07217e	-0.1319637
14	0x3dd075c7	0.10178714
15	0xbea28684	-0.31743252
16	0xbd48515e	-0.048905723
17	0xbcf5b771	-0.029994698
18	0x3c486ff9	0.012233728
19	0x3e1a1042	0.15045264
20	0x3e1ddf6e	0.15417263
21	0x3e8ed7de	0.2789907
22	0xbdc06bd0	-0.093955636
23	0xbe230d51	-0.15923049
24	0x3ea88a48	0.32918
25	0x3d2d9aa4	0.042383805
26	0x3b22bdaf	0.0024832299
27	0xbe354975	-0.17703803
28	0x3dc860be	0.09784077
29	0xbe963403	-0.29336557
30	0x3df45687	0.11930566
31	0x3e379e64	0.17931515
32	0xbe8d078f	-0.2754483
33	0xbe4faa9d	-0.20279928
34	0xbe719943	-0.23593621
35	0x3e924853	0.28570804
36	0x3ed08f04	0.40734112
37	0x3d7765d6	0.060399853
38	0x3ed4fee4	0.41600716
39	0xbd06f320	-0.032946706
40	0xbea8b318	-0.32949138
41	0x3e301788	0.17196476
42	0x3e704da3	0.23467116
43	0x3eb87f94	0.36034834
44	0x3dc562f5	0.09638015
45	0x3ebf2df4	0.37339747
46	0x3e787830	0.24264598
47	0x3ebc638a	0.36794692
48	0xbe8a8815	-0.27056947
49	0x3e836a79	0.2566717
50	0xbe522a05	-0.20523842
51	0x3ed3e851	0.4138818
52	0x3cfacf26	0.030616354
53	0xbe2765d5	-0.1634744
54	0x3d6309e2	0.055429347
55	0xbcba8ee4	-0.022773214
56	0xbe9a5906	-0.30146044
57	0xbdff7b36	-0.124746725
58	0x3dd38137	0.1032738
59	0x3e90baad	0.28267422
60	0xbe13b59e	-0.1442475
61	0x3e6bd30e	0.2302973
62	0x3cde259c	0.027117543
63	0x3c36ec69	0.011164763
64	0x3d7d6e70	0.0618729
65	0xbe6176f8	-0.22018039
66	0xbe8e8aa5	-0.27840152
67	0xbddbd826	-0.107345864
68	0xbe9fef6e	-0.31237358
69	0xbe201889	-0.1563436
70	0x3c5b1588	0.013371833
71	0xbe620f7d	-0.22076221
72	0xbe644909	-0.22293486
73	0xbd683977	-0.056695428
74	0xbe208fb6	-0.15679821
75	0xbe3f5189	-0.18683447
76	0x3dbc1802	0.091842666
77	0xbddc34a4	-0.10752228
78	0x3d1730d1	0.03691179
79	0x3cd1f927	0.0256315
80	0xbe92328e	-0.28554195
81	0xbde56f50	-0.11202872
82	0xbad7144a	-0.0016409245
83	0xbe57d6b6	-0.21078
84	0x3cf9894c	0.030460976
85	0xbca59e4e	-0.020217087
86	0x3e022e0e	0.12712881
87	0x3da9f94c	0.08299503
88	0x3e816218	0.25270152
89	0xbc65ac69	-0.014018157
90	0xbe7e556f	-0.24837278
91	0x3e185123	0.14874701
92	0xbe652f23	-0.22381262
93	0xbd44e3ba	-0.04806874
94	0xbddf7447	-0.1091085
95	0xbe00e1fc	-0.12586206
96	0xbdfc2230	-0.12311208
97	0x3e9dac3f	0.30795476
98	0x3e46bd02	0.19408038
99	0x3d8ea722	0.06965472
100	0x3eaeb6ff	0.3412399
101	0xbea3526b	-0.31898817
102	0x3d1fbb1f	0.038996812
103	0x3e7afd45	0.24510677
104	0x3e533706	0.20626459
105	0xbe9e2956	-0.30890912
106	0x3dfcadf6	0.12337868
107	0xbe6f591c	-0.23373836
108	0xbe8a2e3c	-0.269884
109	0xbdea5fa6	-0.11444025
110	0xbece547f	-0.4029884
111	0xbf06aa53	-0.52603644
112	0xbe606d04	-0.21916586
113	0x3d4af3aa	0.049548782
114	0xbe4fd0ed	-0.20294543
115	0xbee288e1	-0.44245055
116	0xbec0e924	-0.37677872
117	0x3e0d4e82	0.1379948
118	0xbe57607a	-0.21032897
119	0x3ec4bcde	0.38425344
120	0x3ebf5183	0.37366876
121	0x3d9e8047	0.07739311
122	0xbdd1a83b	-0.102371655
123	0x3e5f0871	0.21780564
124	0x3e57b428	0.21064818
125	0x3ef481b1	0.47755197
126	0xbe301c04	-0.17198187
127	0xbea5c0cb	-0.32373652
128	0x3e270637	0.16310965
129	0x3c6290f8	0.013828509
130	0xbe12f485	-0.1435109
131	0xbe0ae00e	-0.13562033
132	0xbe238146	-0.15967283
133	0x3e7ed148	0.24884522
134	0xbd4266ec	-0.047461435
135	0x3edc3eaf	0.43016574
136	0x3eca783e	0.39544863
137	0x3e130afc	0.14359659
138	0x3e8d1149	0.2755225
139	0x3e161f79	0.14660443
140	0x3ee3ccb0	0.44492102
141	0xbc9db90c	-0.019253276
142	0x3ecf3450	0.404696
143	0x3e8586d1	0.2607942
144	0x3e18c779	0.14919843
145	0x39a942d7	0.00032283991
146	0xbdfb4f11	-0.1227094
147	0xbce78a09	-0.028264062
148	0x3e5041d1	0.20337607
149	0xbe54a74a	-0.2076694
150	0xbe39af88	-0.18133366
151	0xbd078fa6	-0.03309598
152	0xbdb3d9ee	-0.08781801
153	0x3e618299	0.22022475
154	0x3e994b63	0.29940328
155	0x3c4612d3	0.012089449
156	0x3ecbec9a	0.3982895
157	0xbd995c4c	-0.07488307
158	0xbe1927d7	-0.14956604
159	0xbd9a38f1	-0.07530392
160	0xbe313700	-0.17306137
161	0xbe4e5e14	-0.20153075
162	0xbe9facda	-0.31186563
163	0xbe7dfda9	-0.24803795
164	0x3d36c8cc	0.04462509
165	0x3e53b611	0.20674922
166	0x3ec7d57f	0.39030072
167	0x3e8ef420	0.27920628
168	0xbd8ef7f6	-0.069808885
169	0x3db3be86	0.08776574
170	0xbe80603e	-0.25073427
171	0x3def1f52	0.11675896
172	0xbea6696d	-0.32502308
173	0x3e18d038	0.14923179
174	0x3d51b081	0.051193718
175	0x3dc97389	0.0983649
176	0x3dec8278	0.115483224
177	0xbe28ac75	-0.16472037
178	0x3e8f7552	0.28019196
179	0x3e1ae3c4	0.15125948
180	0x3ea15a0a	0.31514007
181	0x3dd35c9a	0.10320397
182	0x3eaba365	0.33523098
183	0x3e947982	0.28998953
184	0x3e32698b	0.17423074
185	0x3eb1c1cc	0.34718168
186	0x3d57bc60	0.052669883
187	0x3e952666	0.29130858
188	0x3e608dca	0.21929088
189	0x3e9365f5	0.28788725
190	0x3ebaedcf	0.3650956
191	0x3e759303	0.23981862
192	0xbdac8ef0	-0.08425701
193	0xbd23b159	-0.039964054
194	0x3e5f7bbe	0.21824548
195	0x3e2d0251	0.16895415
196	0xbcba1aac	-0.022717796
197	0x3ee98869	0.45611885
198	0xbdba1fa5	-0.09088067
199	0xbe327165	-0.17426069
200	0xbeb8b2af	-0.36073825
201	0xbdd95b29	-0.106130905
202	0x3d00a591	0.031407896
203	0xbdb8a15c	-0.09015152
204	0xbec752da	-0.38930398
205	0xbe2869fa	-0.16446677
206	0xbef4e9ac	-0.47834527
207	0x3cba1332	0.022714231
208	0x3ec8bf13	0.39208278
209	0x3ea5eeef	0.32408854
210	0x3eccb11f	0.39978883
211	0x3dc320c0	0.09527731
212	0x3e59f805	0.21286018
213	0x3e8d7aa0	0.27632618
214	0x3e0bce52	0.13652924
215	0xbd672745	-0.056433935

model.conv2.conv.2.bias f4 [24]
0	0xbe4c60c3	-0.19958787
1	0xbd942b50	-0.07234824
2	0x3d6fbd42	0.0585301
3	0x3e09d093	0.13458471
4	0x3d562b88	0.05228761
5	0x3e96e1e5	0.2946922
6	0x3e36aa4e	0.17838404
7	0xbd744dbd	-0.05964445
8	0xbe83c71c	-0.25737846
9	0xbe93d78a	-0.2887538
10	0xbe36e96b	-0.1786248
11	0x3e541224	0.20710045
12	0x3e7b19e3	0.24521594
13	0x3ea8533f	0.32876012
14	0xbdeb6ab6	-0.11494963
15	0xbd9a49b6	-0.075335905
16	0xbdd6a3b6	-0.10480444
17	0x3d2bc618	0.041936964
18	0x3e2503b4	0.16114694
19	0xbc499c8a	-0.012305388
20	0x3d8a2682	0.06745626
21	0x3d046f3d	0.032332648
22	0x3ea028b4	0.31281054
23	0xbd86c836	-0.06581156

model.conv2.conv.5.weight f4 [16, 24, 1, 1]
0	0xbe0a4394	-0.13502342
1	0x3d80a929	0.06282265
2	0xbd804526	-0.06263189
3	0xbdf87833	-0.12132301
4	0x3e1eac7d	0.15495487
5	0xbd7ef935	-0.06224938
6	0xbe024d25	-0.12724741
7	0xbdc6425f	-0.09680628
8	0xbb9e0cde	-0.004823311
9	0xbe2df0d8	-0.16986406
10	0x3d48b8fa	0.049004532
11	0xbe0a7948	-0.13522828
12	0x3d355896	0.044273935
13	0xbddc4794	-0.1075584
14	0x3cd4939a	0.025949288
15	0x3d91e346	0.07123427
16	0x3e18ac34	0.1490944
17	0xbe3330d2	-0.17499092
18	0xbd738b43	-0.059458982
19	0x3d034dba	0.032056548
20	0xbe76018d	-0.24024029
21	0xbda4c586	-0.08045487
22	0xbec2f615	-0.3807837
23	0xbe29853d	-0.16554733
24	0xbdda073c	-0.10645911
25	0xbe019394	-0.12653953
26	0x3e1e045a	0.15431347
27	0xbe344869	-0.17605747
28	0x3e2702d0	0.16309667
29	0xbe16cb82	-0.1472607
30	0xbd6381d5	-0.05554374
31	0x3c32a45e	0.010903446
32	0x3e1f2280	0.15540504
33	0xbd9a757e	-0.07541941
34	0x3d69ec9a	0.057110406
35	0xbd844ad3	-0.06459584
36	0x3db5d190	0.088778615
37	0xbd90db34	-0.0707306
38	0x3dc23cfb	0.09484287
39	0xbe86e0a3	-0.2634326
40	0xbe0cfd49	-0.13768496
41	0x3eb066ca	0.34453422
42	0xbe406aac	-0.18790692
43	0xbd483e28	-0.0488874
44	0xbd8a29d0	-0.06746256
45	0x3ddd60cb	0.108094774
46	0xbe8137a3	-0.2523776
47	0xbe2ca4b3	-0.16859703
48	0xbd6d58f6	-0.057946168
49	0x3e016514	0.12636214
50	0x3cfbd851	0.030742796
51	0x3dfdd3e3	0.1239393
52	0xbdb3749d	-0.087624766
53	0x3d3e858f	0.04651409
54	0xbe82f281	-0.2557564
55	0x3db09e50	0.08623946
56	0x3e04323f	0.12909792
57	0x3e18b6cc	0.14913481
58	0xbdd35ac3	-0.10320046
59	0xbe4cd706	-0.200039
60	0xbd7d187c	-0.06179093
61	0xbe819ae6	-0.2531349
62	0xbdfc5b96	-0.12322156
63	0xbea25e32	-0.3171249
64	0x3c9eba53	0.019375956
65	0x3cd495e2	0.025950376
66	0x3ce25296	0.02762727
67	0xbbeaaed5	-0.007161955
68	0xbd01ec6c	-0.03171961
69	0xbe907187	-0.28211614
70	0xbe677952	-0.22604874
71	0xbe0298df	-0.12753628
72	0xbdbbf4f5	-0.09177581
73	0x3e252a29	0.16129364
74	0xbdf230a2	-0.11825682
75	0x3d92cbb0	0.071677566
76	0xbe6e6e46	-0.23284253
77	0x3d97e05f	0.07415842
78	0x3cc228cd	0.023701096
79	0x3d7afaec	0.061274454
80	0xbe13bb5a	-0.14426938
81	0x3dfaf1da	0.12253161
82	0xbe309981	-0.17246057
83	0x3e8f8771	0.2803302
84	0xbd810a8f	-0.06300842
85	0x3e7574b6	0.23970303
86	0xbdc505a1	-0.09620214
87	0xbd021689	-0.031759772
88	0xbd16c72b	-0.036811035
89	0x3e7e5fd2	0.2484124
90	0x3e8b15e8	0.2716515
91	0xbe2a8e82	-0.16655925
92	0x3e079963	0.13242106
93	0x3c8a70c4	0.016899474
94	0x3ee11cc9	0.43967274
95	0x3e0b02db	0.13575308
96	0xbd0c6b28	-0.03428188
97	0xbdf040bd	-0.11731098
98	0x3e00c4b6	0.1257504
99	0xbdc8c78f	-0.09803688
100	0x3d156a02	0.03647805
101	0x3e40d7d4	0.18832332
102	0x3e74d3de	0.23908946
103	0x3d6a60f5	0.05722137
104	0xbe49edff	-0.19719695
105	0x3e191381	0.14948846
106	0xbd747e49	-0.059690747
107	0x3d36461e	0.044500463
108	0x3d72121a	0.059099294
109	0x3e855a63	0.26045522
110	0x3e203205	0.15644081
111	0x3d95dc9f	0.07317471
112	0x3dd7bcd7	0.10534065
113	0xbdd11f9a	-0.10211106
114	0x3e591a54	0.2120145
115	0xbe265ca2	-0.16246274
116	0x3e2af015	0.16693147
117	0xbc128a72	-0.008944141
118	0x3e2e13f8	0.16999805
119	0x3e81a990	0.25324678
120	0x3e705e46	0.23473462
121	0xbde82b13	-0.11336341
122	0xbe28dfae	-0.16491577
123	0xbcfb8a2a	-0.03070553
124	0x3c6ae137	0.014335922
125	0xbd5b2ed6	-0.053511463
126	0x3e2bd59c	0.16780704
127	0xbdde4b4d	-0.10854206
128	0x3ddc9a5d	0.1077163
129	0x3e68f8d8	0.22751176
130	0xbd914f97	-0.07095259
131	0x3e044123	0.12915473
132	0x3df59cb6	0.11992781
133	0x3dfa9c7a	0.12236877
134	0xbbe76856	-0.0070619984
135	0x3e2d325d	0.16913743
136	0x3e23b0ec	0.15985459
137	0x3e885dfc	0.26634204
138	0x3eeb87fb	0.46002182
139	0xbd41c471	-0.04730648
140	0x3d7443e4	0.059635058
141	0x3e23f9e0	0.16013288
142	0xbc880af3	-0.016606783
143	0x3d9d91dd	0.07693837
144	0xbd594bd5	-0.053050835
145	0x3e1e5402	0.15461734
146	0xbe11281f	-0.14175461
147	0xbd156f91	-0.03648335
148	0x3e2ee5d5	0.17079861
149	0xbe8146cf	-0.25249335
150	0xbea2d53e	-0.31803316
151	0xbdad56a5	-0.08463792
152	0x3e3830cb	0.17987363
153	0x3e272496	0.1632255
154	0xbdec8440	-0.11548662
155	0xbe17a0a8	-0.14807379
156	0xbe48665a	-0.19570294
157	0xbe532afc	-0.20621866
158	0x3e4d6bab	0.20060603
159	0x3e9f91b6	0.31165856
160	0xbd30cd26	-0.043164395
161	0x3d852231	0.06500662
162	0xbe489f1d	-0.19591947
163	0x3d1bf2da	0.0380734
164	0xbe252351	-0.16126753
165	0xbe8c179d	-0.27361766
166	0xbe02cdb3	-0.1277378
167	0xbd49d189	-0.049272094
168	0x3db1a5a9	0.08674175
169	0xbd977fdc	-0.07397434
170	0x3d9ee7d2	0.0775906
171	0x3df1265a	0.11774893
172	0x3e4324d9	0.19057025
173	0x3bcabdef	0.0061871926
174	0x3dea05a5	0.11426858
175	0x3c1e6783	0.009668234
176	0x3dbeb24d	0.09311352
177	0x3e516b34	0.20451051
178	0x3e558d5d	0.20854707
179	0xbe80771e	-0.2509088
180	0x3e1f8ca1	0.1558099
181	0xbd25b9bd	-0.040460337
182	0xbccca1b2	-0.024979446
183	0x3eab7fc1	0.33495906
184	0xbdcbef18	-0.09957713
185	0x3c058591	0.0081495205
186	0xbcabdb1d	-0.020978505
187	0xbe13d92a	-0.1443831
188	0xbe4e0199	-0.20117797
189	0xbeafc9c2	-0.34333616
190	0xbeb9974c	-0.36248243
191	0xbe87a6d7	-0.26494476
192	0xbda14d30	-0.078760505
193	0x3d7e3be7	0.062068846
194	0x3e18b59f	0.14913033
195	0x3d9ecaaf	0.077535026
196	0x3e3aa25e	0.18226
197	0x3d044c70	0.03229946
198	0xbe417535	-0.18892367
199	0xbe215ed4	-0.1575883
200	0x3d191fc1	0.0373838
201	0x3e4bdbc6	0.19908056
202	0x3c828cd3	0.01593629
203	0xbe29bd10	-0.16576028
204	0xbe517dd3	-0.20458154
205	0xbe5db685	-0.21651657
206	0xbe1e2672	-0.15444353
207	0x3ed365bf	0.41288564
208	0xbd271e6f	-0.040800508
209	0xbe9eb5ee	-0.30998176
210	0xbe2d47ac	-0.16921872
211	0x3ba07fd4	0.004898051
212	0xbdfe8ec9	-0.12429578
213	0xbd98c00f	-0.07458507
214	0xbe37da4e	-0.1795437
215	0xbe8657e6	-0.26238936
216	0xbe3287f3	-0.17434673
217	0xb82d21c6	-4.1277868e-05
218	0xbe6bdfda	-0.23034611
219	0xbe62455c	-0.22096771
220	0x3e67a1a0	0.22620249
221	0xbdd0c448	-0.10193688
222	0xbe8bed3e	-0.2732944
223	0xbd8bf615	-0.06834046
224	0xbe108b44	-0.14115626
225	0x3e26b995	0.16281731
226	0xbd2b75ca	-0.04186038
227	0xbe81ccd1	-0.25351575
228	0xbe6d4e55	-0.23174413
229	0x3cd98511	0.026552709
230	0xbce99cdc	-0.02851718
231	0x3bda1c22	0.0066561857
232	0xbd60190f	-0.054711398
233	0xbe35ce4f	-0.17754482
234	0xbe788185	-0.24268158
235	0x3e16faaf	0.14744066
236	0xbe4eebcc	-0.20207137
237	0xbde7e56a	-0.11323054
238	0xbebffee9	-0.3749917
239	0xbe358fa7	-0.1773058
240	0x3e3f3434	0.18672258
241	0xbc89bac2	-0.016812686
242	0x3e72a888	0.23697102
243	0xbb34e698	-0.0027603265
244	0xbe39e72b	-0.1815459
245	0xbd604000	-0.054748535
246	0x3e95049d	0.29105082
247	0xbe29a91d	-0.16568418
248	0x3d97ccbe	0.07412098
249	0x3d24c6ff	0.04022884
250	0x3d50382f	0.05083483
251	0x3e8bcee9	0.27306297
252	0x3ced630c	0.028977893
253	0x3e80c85f	0.2515287
254	0xbe37ea95	-0.1796058
255	0xbdf581ec	-0.11987671

model.conv2.conv.5.bias f4 [16]
0	0xbd303195	-0.043016035
1	0x3e0d6caa	0.13810983
2	0xbbf2e155	-0.0074121156
3	0x3ddf276b	0.1089619
4	0x3dbd9ecc	0.09258804
5	0xbdd588ad	-0.104264595
6	0xbdc153db	-0.09439822
7	0xbe17ea31	-0.1483543
8	0xbe5ae482	-0.21376231
9	0xbe39348b	-0.1808645
10	0x3e8923df	0.2678518
11	0xbdd58136	-0.10425036
12	0x3dff94a0	0.1247952
13	0x3e204476	0.15651116
14	0xbd9b4c36	-0.075828955
15	0xbb693e48	-0.00355901

model.conv3.conv.0.weight f4 [48, 16, 1, 1]
0	0xbe42ac05	-0.19010933
1	0xbd503791	-0.050834242
2	0x3db0c171	0.08630646
3	0xbe3c1220	-0.18366289
4	0xbd2ee6e5	-0.042700667
5	0x3d76e3fe	0.060276024
6	0x3e71cae8	0.23612559
7	0x3d54c6ed	0.051947523
8	0xbc296bda	-0.010340655
9	0x3e4e732b	0.2016112
10	0x3e0cf492	0.13765171
11	0x3dc03e93	0.09386935
12	0xbdc29b85	-0.09502319
13	0xbe63bb8d	-0.22239514
14	0xbd3ab21d	-0.04558002
15	0xbe055deb	-0.13024108
16	0xbd390002	-0.045166023
17	0xbe049cae	-0.12950394
18	0x3dbefe21	0.09325815
19	0x3e7df2c2	0.24799636
20	0xbc9cfd7a	-0.019163836
21	0xbdf66bbc	-0.120322675
22	0xbe579a7d	-0.21055026
23	0xbe3452c1	-0.17609693
24	0x3d65160f	0.05592924
25	0xbe82e7d1	-0.25567487
26	0x3d8fc791	0.07020486
27	0xbdee2a29	-0.11629135
28	0xbd8f7ec8	-0.070066035
29	0x3e54527c	0.2073459
30	0xbe5d4c94	-0.21611243
31	0x3d8f99dc	0.07011768
32	0x3dd46d4a	0.10372408
33	0xbeb358eb	-0.35028777
34	0xbc25804f	-0.010101392
35	0x3d7601d7	0.06006035
36	0xbed54406	-0.4165346
37	0x3eac3c01	0.3363953
38	0xbe76536b	-0.24055259
39	0x3ea639ac	0.32465875
40	0xbe334f8e	-0.17510816
41	0xbe9d2998	-0.30695796
42	0xbeba3d90	-0.36375093
43	0x3ee4bb6d	0.44674245
44	0xbece9e9c	-0.40355384
45	0x3e4581b1	0.19287755
46	0x3db365f9	0.08759684
47	0x3eee1f38	0.46508193
48	0xbe6c2eac	-0.23064679
49	0x3ca7963e	0.020457383
50	0xbec44d7c	-0.38340366
51	0x3e9fe23f	0.312273
52	0x3da24bf4	0.07924643
53	0x3c9ca309	0.01912071
54	0xbe88cc7d	-0.26718512
55	0xbe760967	-0.24027024
56	0xbe6b7ad3	-0.22996072
57	0xbc9c2715	-0.019061605
58	0x3ebab6a2	0.36467463
59	0xbebd779b	-0.37005314
60	0x3c0d604e	0.008628918
61	0x3dc85901	0.09782601
62	0xbea8188a	-0.32831222
63	0xbda24137	-0.07922595
64	0xbe505039	-0.20343103
65	0x3dbfbffd	0.09362791
66	0x3e355091	0.17706515
67	0x3c9bf76b	0.019038877
68	0xbe38ea10	-0.18058038
69	0xbe40efd7	-0.18841492
70	0xbdc70100	-0.097169876
71	0x3d960be8	0.0732649
72	0x3bd4abec	0.0064902212
73	0x3d377df0	0.044797838
74	0x3e705934	0.23471528
75	0x3def268a	0.116772726
76	0x3d583061	0.052780513
77	0xbd50c861	-0.050972346
78	0x3df35670	0.11881721
79	0x3dbb01d3	0.09131207
80	0xbed862bc	-0.42262828
81	0xbe202e82	-0.15642741
82	0xbe15e0fe	-0.14636609
83	0x3e9600c6	0.29297465
84	0x3e80f281	0.25185016
85	0xbd65e3f1	-0.056125585
86	0xbec41eb4	-0.38304675
87	0xbe74d9c4	-0.23911196
88	0xbe7b8144	-0.2456103
89	0xbd93ae75	-0.072110094
90	0x3e153a4d	0.14573021
91	0x3b17f06f	0.002318408
92	0x3e140c0d	0.14457722
93	0x3ead02f4	0.33791316
94	0xbea945ed	-0.33061162
95	0x3daec855	0.08534304
96	0xbd75c149	-0.059998784
97	0xbe46c41b	-0.19410746
98	0x3de0e2ea	0.109807804
99	0xbe12fe2a	-0.14354768
100	0x3ea000fd	0.31250754
101	0x3dbcd8fe	0.092210755
102	0xbd470af7	-0.04859444
103	0x3d1d0913	0.038338732
104	0xbda7ac9e	-0.08187221
105	0x3c4e0527	0.012574471
106	0x3e967f2c	0.293939
107	0xbe8f334e	-0.2796883
108	0x3e868854	0.26275885
109	0x3d8f85d4	0.070079476
110	0xbe3e1110	-0.18561196
111	0x3e0f3881	0.13986398
112	0x3e63dcd4	0.22252208
113	0xbe2842eb	-0.16431777
114	0xbe1ce967	-0.15323411
115	0x3e06786d	0.13131876
116	0xbde7f684	-0.11326316
117	0x3deef12d	0.116670944
118	0xbd673cbc	-0.056454405
119	0x3dcf14d4	0.101113945
120	0x3e5cd343	0.21564965
121	0xbe19c0cb	-0.15014951
122	0xbe35479d	-0.177031
123	0x3e2739a5	0.16330583
124	0x3d105585	0.035237808
125	0xbd659e64	-0.056059256
126	0xbe586d63	-0.21135478
127	0x3e52cb64	0.205854
128	0xbddf72c6	-0.10910563
129	0x3cb9b843	0.02267087
130	0xbd5c53da	-0.053790905
131	0x3c1224f1	0.00891994
132	0x3e657876	0.22409233
133	0xbdefaed7	-0.1170327
134	0x3e5c8b4b	0.21537511
135	0xbdeefb85	-0.11669067
136	0xbdbdb5eb	-0.09263214
137	0x3e195ff8	0.14978015
138	0x3decb6f8	0.11558336
139	0xbdf852e8	-0.12125188
140	0x3df98e34	0.12185326
141	0x3e7cc10c	0.24683017
142	0x3cdd344e	0.02700248
143	0x3e6fbb5e	0.23411319
144	0x3e1667de	0.1468806
145	0x3dea736f	0.114477985
146	0xbc70c528	-0.014695443
147	0x3d1e6b58	0.03867659
148	0x3d460f6c	0.04835455
149	0x3e2a7759	0.1664709
150	0x3eab38b1	0.3344169
151	0x3daf035f	0.08545565
152	0x3d3acf55	0.045607883
153	0x3e9a8dc1	0.30186275
154	0xbe2fcea6	-0.17168674
155	0x3e312646	0.17299756
156	0x3d637215	0.05552872
157	0x3e2672ed	0.16254778
158	0xbd2a24aa	-0.04153887
159	0xbe7017df	-0.23446606
160	0x3e6ea3f2	0.23304728
161	0xbde662a8	-0.11249286
162	0x3de11646	0.109905764
163	0x3da556ec	0.0807322
164	0xbe74939f	-0.23884438
165	0x3d228163	0.039674174
166	0xbd8e01e9	-0.06933958
167	0x3e6f58d9	0.23373736
168	0xbd97c304	-0.07410243
169	0x3e3817c7	0.1797782
170	0x3dbd822d	0.09253345
171	0x3e579253	0.21051912
172	0x3e80118b	0.25013384
173	0xbd3a502c	-0.045486614
174	0xbe452761	-0.19253303
175	0x3e397de5	0.18114431
176	0x3da08557	0.078379326
177	0x3e0f0d53	0.13969927
178	0xbdb898f0	-0.090135455
179	0xbe794d67	-0.24345933
180	0xbe4f135e	-0.20222232
181	0x3d4cad5b	0.049970012
182	0x3ebf3c2c	0.37350595
183	0x3e366cc0	0.17814922
184	0x3e80b543	0.25138292
185	0x3d1bd2c9	0.038042817
186	0xbe2e57a6	-0.17025623
187	0xbd8bf3a4	-0.0683358
188	0xbea01113	-0.31263027
189	0x3d0915de	0.03346812
190	0x3eabb5fa	0.33537275
191	0x3e02971a	0.12752953
192	0xbe815b36	-0.252649
193	0xbeb5e357	-0.3552501
194	0xbe9179df	-0.28413293
195	0x3eca538d	0.3951687
196	0x3f2be0f8	0.6714015
197	0x3e8d6428	0.27615476
198	0xbeb09e68	-0.34495854
199	0xbf272241	-0.6528664
200	0xbe4e9748	-0.20174897
201	0xbc97dffd	-0.018539423
202	0x3ea2b39d	0.3177766
203	0xbe4ad080	-0.19806099
204	0x3f02efbf	0.51147074
205	0x3e3ab2a5	0.1823221
206	0xbea52eb2	-0.32262188
207	0x3f1db293	0.6160061
208	0xbd8abcd9	-0.06774301
209	0xbdefa2ee	-0.11700998
210	0xbe80687f	-0.25079724
211	0x3d5e414d	0.054261494
212	0x3e144f49	0.1448337
213	0xbda70db8	-0.081569135
214	0x3df37b69	0.11888773
215	0xbe8d1201	-0.27552798
216	0xbe7650ab	-0.2405421
217	0xbe35666a	-0.17714849
218	0xbd0716f0	-0.03298086
219	0xbdfb75dd	-0.1227834
220	0x3c4f179e	0.012639908
221	0x3e231199	0.15924682
222	0xbe87a3ed	-0.26492253
223	0x3e1b54c2	0.15169051
224	0xbe3ad97a	-0.18247023
225	0xbe90b930	-0.28266287
226	0xbdcdcdda	-0.10049029
227	0x3eedad26	0.46421164
228	0x3bd75eb6	0.0065725697
229	0x3e3b7ab2	0.18308523
230	0xbedf5bf6	-0.43624848
231	0xbeb95c59	-0.36203268
232	0xbe0f96c8	-0.14022362
233	0xbea63f52	-0.32470185
234	0x3f12be5c	0.57321715
235	0xbe645861	-0.22299339
236	0xbc87243a	-0.016496766
237	0x3f05f341	0.523243
238	0xbdbe76dd	-0.09300015
239	0x3ef2654c	0.47342908
240	0x3e706922	0.23477605
241	0xbe4871f2	-0.19574717
242	0x3da58996	0.08082883
243	0xbeec5f54	-0.4616648
244	0xbe95ddb7	-0.29270718
245	0xbde49318	-0.111608684
246	0x3e10254e	0.1407673
247	0x3e6e63ce	0.2328026
248	0x3e9df2fb	0.30849442
249	0x3b602ca5	0.0034206298
250	0xbe50c0d8	-0.20386064
251	0xbdc385ef	-0.0954703
252	0xbd96e9bc	-0.073688
253	0xbe8b3d6b	-0.27195296
254	0x3ee44d83	0.44590387
255	0xbe30ecf0	-0.17277884

model.conv3.conv.0.bias f4 [48]
0	0xbe0cf5b9	-0.13765611
1	0xbd4d139d	-0.050067533
2	0x3e5c83bd	0.21534629
3	0x3e951e74	0.29124796
4	0x3dc91077	0.098175935
5	0xbe2b7bc2	-0.16746429
6	0x3e757d38	0.23973548
7	0xbd1c571b	-0.038169008
8	0x3e14b31b	0.14521448
9	0x3de42120	0.111391306
10	0x3e052d4e	0.13005564
11	0x3dd997fd	0.106246926
12	0x3e5c7746	0.21529874
13	0x3e15d839	0.14633264
14	0x3e2074e2	0.15669587
15	0x3ea41348	0.3204596
16	0x3dfe3f40	0.12414408
17	0x3e4273b2	0.18989447
18	0xbd79bcc7	-0.060971048
19	0x3e27fb51	0.16404463
20	0x3e63ec37	0.22258078
21	0xbe568332	-0.20948485
22	0x3e3e57de	0.18588206
23	0xbe0fb328	-0.14033186
24	0x3d02a07d	0.031891335
25	0xbd3cbeba	-0.04608033
26	0x3e0ca4b5	0.13734706
27	0xbe1c1a2e	-0.15244362
28	0x3cbc6f12	0.023002181
29	0xbdacc963	-0.08436849
30	0x3e323e98	0.1740669
31	0xbe63cedc	-0.2224688
32	0xbd2ab5ad	-0.041677166
33	0x3c570285	0.013123159
34	0x3d764555	0.060124714
35	0xbd4a74bb	-0.04942773
36	0x3e07f866	0.1327835
37	0xbe335ce9	-0.17515911
38	0xbe5ff9a9	-0.21872582
39	0x3a07a440	0.00051743165
40	0x3cbff157	0.02343051
41	0x3e4074f5	0.18794616
42	0xbe1dfb3f	-0.15427874
43	0xbc9f2e27	-0.019431187
44	0x3e4bbe73	0.1989687
45	0xbe36b49c	-0.17842335
46	0x3e5e0d3a	0.21684733
47	0xbdffaa51	-0.12483657
